{"format": "graph-model", "generatedBy": "2.6.0", "convertedBy": "TensorFlow.js Converter v3.8.0", "signature": {"inputs": {"images:0": {"name": "images:0", "dtype": "DT_FLOAT", "tensorShape": {"dim": [{"size": "-1"}, {"size": "192"}, {"size": "192"}, {"size": "3"}]}}}, "outputs": {"module_apply_default/detection_scores:0": {"name": "module_apply_default/detection_scores:0", "dtype": "DT_FLOAT", "tensorShape": {"unknownRank": true}}, "module_apply_default/num_detections:0": {"name": "module_apply_default/num_detections:0", "dtype": "DT_FLOAT", "tensorShape": {"unknownRank": true}}, "module_apply_default/detection_boxes:0": {"name": "module_apply_default/detection_boxes:0", "dtype": "DT_FLOAT", "tensorShape": {"unknownRank": true}}, "module_apply_default/detection_classes:0": {"name": "module_apply_default/detection_classes:0", "dtype": "DT_FLOAT", "tensorShape": {"unknownRank": true}}}}, "modelTopology": {"node": [{"name": "module_apply_default/Postprocessor/BatchMultiClassNonMaxSuppression/map/TensorArrayStack/range/start", "op": "Const", "attr": {"dtype": {"type": "DT_INT32"}, "value": {"tensor": {"dtype": "DT_INT32", "tensorShape": {}}}}}, {"name": "module_apply_default/Postprocessor/BatchMultiClassNonMaxSuppression/map/TensorArrayStack/range/delta", "op": "Const", "attr": {"dtype": {"type": "DT_INT32"}, "value": {"tensor": {"dtype": "DT_INT32", "tensorShape": {}}}}}, {"name": "module_apply_default/Postprocessor/BatchMultiClassNonMaxSuppression/map/TensorArrayStack_2/range/start", "op": "Const", "attr": {"dtype": {"type": "DT_INT32"}, "value": {"tensor": {"dtype": "DT_INT32", "tensorShape": {}}}}}, {"name": "module_apply_default/Postprocessor/BatchMultiClassNonMaxSuppression/map/TensorArrayStack_2/range/delta", "op": "Const", "attr": {"dtype": {"type": "DT_INT32"}, "value": {"tensor": {"dtype": "DT_INT32", "tensorShape": {}}}}}, {"name": "module_apply_default/add/y", "op": "Const", "attr": {"value": {"tensor": {"dtype": "DT_FLOAT", "tensorShape": {}}}, "dtype": {"type": "DT_FLOAT"}}}, {"name": "module_apply_default/Postprocessor/BatchMultiClassNonMaxSuppression/map/TensorArrayStack_1/range/start", "op": "Const", "attr": {"dtype": {"type": "DT_INT32"}, "value": {"tensor": {"dtype": "DT_INT32", "tensorShape": {}}}}}, {"name": "module_apply_default/Postprocessor/BatchMultiClassNonMaxSuppression/map/TensorArrayStack_1/range/delta", "op": "Const", "attr": {"value": {"tensor": {"dtype": "DT_INT32", "tensorShape": {}}}, "dtype": {"type": "DT_INT32"}}}, {"name": "module_apply_default/Postprocessor/BatchMultiClassNonMaxSuppression/map/TensorArrayStack_4/range/start", "op": "Const", "attr": {"value": {"tensor": {"dtype": "DT_INT32", "tensorShape": {}}}, "dtype": {"type": "DT_INT32"}}}, {"name": "module_apply_default/Postprocessor/BatchMultiClassNonMaxSuppression/map/TensorArrayStack_4/range/delta", "op": "Const", "attr": {"dtype": {"type": "DT_INT32"}, "value": {"tensor": {"dtype": "DT_INT32", "tensorShape": {}}}}}, {"name": "module_apply_default/Postprocessor/BatchMultiClassNonMaxSuppression/map/TensorArrayUnstack_1/range/start", "op": "Const", "attr": {"dtype": {"type": "DT_INT32"}, "value": {"tensor": {"dtype": "DT_INT32", "tensorShape": {}}}}}, {"name": "module_apply_default/Postprocessor/BatchMultiClassNonMaxSuppression/map/TensorArrayUnstack_1/strided_slice/stack", "op": "Const", "attr": {"dtype": {"type": "DT_INT32"}, "value": {"tensor": {"dtype": "DT_INT32", "tensorShape": {"dim": [{"size": "1"}]}}}}}, {"name": "module_apply_default/Postprocessor/BatchMultiClassNonMaxSuppression/map/TensorArrayUnstack_1/strided_slice/stack_1", "op": "Const", "attr": {"dtype": {"type": "DT_INT32"}, "value": {"tensor": {"dtype": "DT_INT32", "tensorShape": {"dim": [{"size": "1"}]}}}}}, {"name": "module_apply_default/Postprocessor/BatchMultiClassNonMaxSuppression/map/TensorArrayUnstack_1/strided_slice/stack_2", "op": "Const", "attr": {"dtype": {"type": "DT_INT32"}, "value": {"tensor": {"dtype": "DT_INT32", "tensorShape": {"dim": [{"size": "1"}]}}}}}, {"name": "module_apply_default/Postprocessor/BatchMultiClassNonMaxSuppression/map/TensorArrayUnstack_1/range/delta", "op": "Const", "attr": {"dtype": {"type": "DT_INT32"}, "value": {"tensor": {"dtype": "DT_INT32", "tensorShape": {}}}}}, {"name": "module_apply_default/BoxPredictor_0/ClassPredictor_depthwise/weights_quant/FakeQuantWithMinMaxVars", "op": "Const", "attr": {"dtype": {"type": "DT_FLOAT"}, "value": {"tensor": {"dtype": "DT_FLOAT", "tensorShape": {"dim": [{"size": "3"}, {"size": "3"}, {"size": "432"}, {"size": "1"}]}}}}}, {"name": "module_apply_default/BoxPredictor_0/ClassPredictor_depthwise/BatchNorm_Fold/bias", "op": "Const", "attr": {"dtype": {"type": "DT_FLOAT"}, "value": {"tensor": {"dtype": "DT_FLOAT", "tensorShape": {"dim": [{"size": "432"}]}}}}}, {"name": "module_apply_default/BoxPredictor_0/ClassPredictor_depthwise/act_quant/min", "op": "Const", "attr": {"dtype": {"type": "DT_FLOAT"}, "value": {"tensor": {"dtype": "DT_FLOAT", "tensorShape": {}}}}}, {"name": "module_apply_default/BoxPredictor_0/ClassPredictor_depthwise/act_quant/max", "op": "Const", "attr": {"dtype": {"type": "DT_FLOAT"}, "value": {"tensor": {"dtype": "DT_FLOAT", "tensorShape": {}}}}}, {"name": "module_apply_default/BoxPredictor_0/ClassPredictor/weights_quant/FakeQuantWithMinMaxVars", "op": "Const", "attr": {"value": {"tensor": {"dtype": "DT_FLOAT", "tensorShape": {"dim": [{"size": "1"}, {"size": "1"}, {"size": "432"}, {"size": "3"}]}}}, "dtype": {"type": "DT_FLOAT"}}}, {"name": "module_apply_default/BoxPredictor_0/ClassPredictor/biases", "op": "Const", "attr": {"dtype": {"type": "DT_FLOAT"}, "value": {"tensor": {"dtype": "DT_FLOAT", "tensorShape": {"dim": [{"size": "3"}]}}}}}, {"name": "module_apply_default/BoxPredictor_0/ClassPredictor/act_quant/min", "op": "Const", "attr": {"dtype": {"type": "DT_FLOAT"}, "value": {"tensor": {"dtype": "DT_FLOAT", "tensorShape": {}}}}}, {"name": "module_apply_default/BoxPredictor_0/ClassPredictor/act_quant/max", "op": "Const", "attr": {"dtype": {"type": "DT_FLOAT"}, "value": {"tensor": {"dtype": "DT_FLOAT", "tensorShape": {}}}}}, {"name": "module_apply_default/BoxPredictor_0/strided_slice_1/stack", "op": "Const", "attr": {"dtype": {"type": "DT_INT32"}, "value": {"tensor": {"dtype": "DT_INT32", "tensorShape": {"dim": [{"size": "1"}]}}}}}, {"name": "module_apply_default/BoxPredictor_0/strided_slice_1/stack_1", "op": "Const", "attr": {"dtype": {"type": "DT_INT32"}, "value": {"tensor": {"dtype": "DT_INT32", "tensorShape": {"dim": [{"size": "1"}]}}}}}, {"name": "module_apply_default/BoxPredictor_0/strided_slice_1/stack_2", "op": "Const", "attr": {"dtype": {"type": "DT_INT32"}, "value": {"tensor": {"dtype": "DT_INT32", "tensorShape": {"dim": [{"size": "1"}]}}}}}, {"name": "module_apply_default/BoxPredictor_0/Reshape_1/shape/1", "op": "Const", "attr": {"dtype": {"type": "DT_INT32"}, "value": {"tensor": {"dtype": "DT_INT32", "tensorShape": {}}}}}, {"name": "module_apply_default/BoxPredictor_0/Reshape_1/shape/2", "op": "Const", "attr": {"value": {"tensor": {"dtype": "DT_INT32", "tensorShape": {}}}, "dtype": {"type": "DT_INT32"}}}, {"name": "module_apply_default/BoxPredictor_1/ClassPredictor_depthwise/weights_quant/FakeQuantWithMinMaxVars", "op": "Const", "attr": {"dtype": {"type": "DT_FLOAT"}, "value": {"tensor": {"dtype": "DT_FLOAT", "tensorShape": {"dim": [{"size": "3"}, {"size": "3"}, {"size": "960"}, {"size": "1"}]}}}}}, {"name": "module_apply_default/BoxPredictor_1/ClassPredictor_depthwise/BatchNorm_Fold/bias", "op": "Const", "attr": {"dtype": {"type": "DT_FLOAT"}, "value": {"tensor": {"dtype": "DT_FLOAT", "tensorShape": {"dim": [{"size": "960"}]}}}}}, {"name": "module_apply_default/BoxPredictor_1/ClassPredictor_depthwise/act_quant/min", "op": "Const", "attr": {"dtype": {"type": "DT_FLOAT"}, "value": {"tensor": {"dtype": "DT_FLOAT", "tensorShape": {}}}}}, {"name": "module_apply_default/BoxPredictor_1/ClassPredictor_depthwise/act_quant/max", "op": "Const", "attr": {"dtype": {"type": "DT_FLOAT"}, "value": {"tensor": {"dtype": "DT_FLOAT", "tensorShape": {}}}}}, {"name": "module_apply_default/BoxPredictor_1/ClassPredictor/weights_quant/FakeQuantWithMinMaxVars", "op": "Const", "attr": {"dtype": {"type": "DT_FLOAT"}, "value": {"tensor": {"dtype": "DT_FLOAT", "tensorShape": {"dim": [{"size": "1"}, {"size": "1"}, {"size": "960"}, {"size": "6"}]}}}}}, {"name": "module_apply_default/BoxPredictor_1/ClassPredictor/biases", "op": "Const", "attr": {"dtype": {"type": "DT_FLOAT"}, "value": {"tensor": {"dtype": "DT_FLOAT", "tensorShape": {"dim": [{"size": "6"}]}}}}}, {"name": "module_apply_default/BoxPredictor_1/ClassPredictor/act_quant/min", "op": "Const", "attr": {"dtype": {"type": "DT_FLOAT"}, "value": {"tensor": {"dtype": "DT_FLOAT", "tensorShape": {}}}}}, {"name": "module_apply_default/BoxPredictor_1/ClassPredictor/act_quant/max", "op": "Const", "attr": {"dtype": {"type": "DT_FLOAT"}, "value": {"tensor": {"dtype": "DT_FLOAT", "tensorShape": {}}}}}, {"name": "module_apply_default/BoxPredictor_1/strided_slice_1/stack", "op": "Const", "attr": {"dtype": {"type": "DT_INT32"}, "value": {"tensor": {"dtype": "DT_INT32", "tensorShape": {"dim": [{"size": "1"}]}}}}}, {"name": "module_apply_default/BoxPredictor_1/strided_slice_1/stack_1", "op": "Const", "attr": {"dtype": {"type": "DT_INT32"}, "value": {"tensor": {"dtype": "DT_INT32", "tensorShape": {"dim": [{"size": "1"}]}}}}}, {"name": "module_apply_default/BoxPredictor_1/strided_slice_1/stack_2", "op": "Const", "attr": {"dtype": {"type": "DT_INT32"}, "value": {"tensor": {"dtype": "DT_INT32", "tensorShape": {"dim": [{"size": "1"}]}}}}}, {"name": "module_apply_default/BoxPredictor_1/Reshape_1/shape/1", "op": "Const", "attr": {"value": {"tensor": {"dtype": "DT_INT32", "tensorShape": {}}}, "dtype": {"type": "DT_INT32"}}}, {"name": "module_apply_default/BoxPredictor_1/Reshape_1/shape/2", "op": "Const", "attr": {"dtype": {"type": "DT_INT32"}, "value": {"tensor": {"dtype": "DT_INT32", "tensorShape": {}}}}}, {"name": "module_apply_default/BoxPredictor_2/ClassPredictor_depthwise/weights_quant/FakeQuantWithMinMaxVars", "op": "Const", "attr": {"dtype": {"type": "DT_FLOAT"}, "value": {"tensor": {"dtype": "DT_FLOAT", "tensorShape": {"dim": [{"size": "3"}, {"size": "3"}, {"size": "384"}, {"size": "1"}]}}}}}, {"name": "module_apply_default/BoxPredictor_2/ClassPredictor_depthwise/BatchNorm_Fold/bias", "op": "Const", "attr": {"dtype": {"type": "DT_FLOAT"}, "value": {"tensor": {"dtype": "DT_FLOAT", "tensorShape": {"dim": [{"size": "384"}]}}}}}, {"name": "module_apply_default/BoxPredictor_2/ClassPredictor_depthwise/act_quant/min", "op": "Const", "attr": {"dtype": {"type": "DT_FLOAT"}, "value": {"tensor": {"dtype": "DT_FLOAT", "tensorShape": {}}}}}, {"name": "module_apply_default/BoxPredictor_2/ClassPredictor_depthwise/act_quant/max", "op": "Const", "attr": {"dtype": {"type": "DT_FLOAT"}, "value": {"tensor": {"dtype": "DT_FLOAT", "tensorShape": {}}}}}, {"name": "module_apply_default/BoxPredictor_2/ClassPredictor/weights_quant/FakeQuantWithMinMaxVars", "op": "Const", "attr": {"dtype": {"type": "DT_FLOAT"}, "value": {"tensor": {"dtype": "DT_FLOAT", "tensorShape": {"dim": [{"size": "1"}, {"size": "1"}, {"size": "384"}, {"size": "6"}]}}}}}, {"name": "module_apply_default/BoxPredictor_2/ClassPredictor/biases", "op": "Const", "attr": {"dtype": {"type": "DT_FLOAT"}, "value": {"tensor": {"dtype": "DT_FLOAT", "tensorShape": {"dim": [{"size": "6"}]}}}}}, {"name": "module_apply_default/BoxPredictor_2/ClassPredictor/act_quant/min", "op": "Const", "attr": {"dtype": {"type": "DT_FLOAT"}, "value": {"tensor": {"dtype": "DT_FLOAT", "tensorShape": {}}}}}, {"name": "module_apply_default/BoxPredictor_2/ClassPredictor/act_quant/max", "op": "Const", "attr": {"dtype": {"type": "DT_FLOAT"}, "value": {"tensor": {"dtype": "DT_FLOAT", "tensorShape": {}}}}}, {"name": "module_apply_default/BoxPredictor_2/strided_slice_1/stack", "op": "Const", "attr": {"dtype": {"type": "DT_INT32"}, "value": {"tensor": {"dtype": "DT_INT32", "tensorShape": {"dim": [{"size": "1"}]}}}}}, {"name": "module_apply_default/BoxPredictor_2/strided_slice_1/stack_1", "op": "Const", "attr": {"dtype": {"type": "DT_INT32"}, "value": {"tensor": {"dtype": "DT_INT32", "tensorShape": {"dim": [{"size": "1"}]}}}}}, {"name": "module_apply_default/BoxPredictor_2/strided_slice_1/stack_2", "op": "Const", "attr": {"dtype": {"type": "DT_INT32"}, "value": {"tensor": {"dtype": "DT_INT32", "tensorShape": {"dim": [{"size": "1"}]}}}}}, {"name": "module_apply_default/BoxPredictor_2/Reshape_1/shape/1", "op": "Const", "attr": {"dtype": {"type": "DT_INT32"}, "value": {"tensor": {"dtype": "DT_INT32", "tensorShape": {}}}}}, {"name": "module_apply_default/BoxPredictor_2/Reshape_1/shape/2", "op": "Const", "attr": {"dtype": {"type": "DT_INT32"}, "value": {"tensor": {"dtype": "DT_INT32", "tensorShape": {}}}}}, {"name": "module_apply_default/BoxPredictor_3/ClassPredictor_depthwise/weights_quant/FakeQuantWithMinMaxVars", "op": "Const", "attr": {"dtype": {"type": "DT_FLOAT"}, "value": {"tensor": {"dtype": "DT_FLOAT", "tensorShape": {"dim": [{"size": "3"}, {"size": "3"}, {"size": "192"}, {"size": "1"}]}}}}}, {"name": "module_apply_default/BoxPredictor_3/ClassPredictor_depthwise/BatchNorm_Fold/bias", "op": "Const", "attr": {"dtype": {"type": "DT_FLOAT"}, "value": {"tensor": {"dtype": "DT_FLOAT", "tensorShape": {"dim": [{"size": "192"}]}}}}}, {"name": "module_apply_default/BoxPredictor_3/ClassPredictor_depthwise/act_quant/min", "op": "Const", "attr": {"dtype": {"type": "DT_FLOAT"}, "value": {"tensor": {"dtype": "DT_FLOAT", "tensorShape": {}}}}}, {"name": "module_apply_default/BoxPredictor_3/ClassPredictor_depthwise/act_quant/max", "op": "Const", "attr": {"dtype": {"type": "DT_FLOAT"}, "value": {"tensor": {"dtype": "DT_FLOAT", "tensorShape": {}}}}}, {"name": "module_apply_default/BoxPredictor_3/ClassPredictor/weights_quant/FakeQuantWithMinMaxVars", "op": "Const", "attr": {"value": {"tensor": {"dtype": "DT_FLOAT", "tensorShape": {"dim": [{"size": "1"}, {"size": "1"}, {"size": "192"}, {"size": "6"}]}}}, "dtype": {"type": "DT_FLOAT"}}}, {"name": "module_apply_default/BoxPredictor_3/ClassPredictor/biases", "op": "Const", "attr": {"dtype": {"type": "DT_FLOAT"}, "value": {"tensor": {"dtype": "DT_FLOAT", "tensorShape": {"dim": [{"size": "6"}]}}}}}, {"name": "module_apply_default/BoxPredictor_3/ClassPredictor/act_quant/min", "op": "Const", "attr": {"dtype": {"type": "DT_FLOAT"}, "value": {"tensor": {"dtype": "DT_FLOAT", "tensorShape": {}}}}}, {"name": "module_apply_default/BoxPredictor_3/ClassPredictor/act_quant/max", "op": "Const", "attr": {"dtype": {"type": "DT_FLOAT"}, "value": {"tensor": {"dtype": "DT_FLOAT", "tensorShape": {}}}}}, {"name": "module_apply_default/BoxPredictor_3/strided_slice_1/stack", "op": "Const", "attr": {"dtype": {"type": "DT_INT32"}, "value": {"tensor": {"dtype": "DT_INT32", "tensorShape": {"dim": [{"size": "1"}]}}}}}, {"name": "module_apply_default/BoxPredictor_3/strided_slice_1/stack_1", "op": "Const", "attr": {"dtype": {"type": "DT_INT32"}, "value": {"tensor": {"dtype": "DT_INT32", "tensorShape": {"dim": [{"size": "1"}]}}}}}, {"name": "module_apply_default/BoxPredictor_3/strided_slice_1/stack_2", "op": "Const", "attr": {"dtype": {"type": "DT_INT32"}, "value": {"tensor": {"dtype": "DT_INT32", "tensorShape": {"dim": [{"size": "1"}]}}}}}, {"name": "module_apply_default/BoxPredictor_3/Reshape_1/shape/1", "op": "Const", "attr": {"dtype": {"type": "DT_INT32"}, "value": {"tensor": {"dtype": "DT_INT32", "tensorShape": {}}}}}, {"name": "module_apply_default/BoxPredictor_3/Reshape_1/shape/2", "op": "Const", "attr": {"dtype": {"type": "DT_INT32"}, "value": {"tensor": {"dtype": "DT_INT32", "tensorShape": {}}}}}, {"name": "module_apply_default/BoxPredictor_4/ClassPredictor_depthwise/weights_quant/FakeQuantWithMinMaxVars", "op": "Const", "attr": {"dtype": {"type": "DT_FLOAT"}, "value": {"tensor": {"dtype": "DT_FLOAT", "tensorShape": {"dim": [{"size": "3"}, {"size": "3"}, {"size": "192"}, {"size": "1"}]}}}}}, {"name": "module_apply_default/BoxPredictor_4/ClassPredictor_depthwise/BatchNorm_Fold/bias", "op": "Const", "attr": {"dtype": {"type": "DT_FLOAT"}, "value": {"tensor": {"dtype": "DT_FLOAT", "tensorShape": {"dim": [{"size": "192"}]}}}}}, {"name": "module_apply_default/BoxPredictor_4/ClassPredictor_depthwise/act_quant/min", "op": "Const", "attr": {"dtype": {"type": "DT_FLOAT"}, "value": {"tensor": {"dtype": "DT_FLOAT", "tensorShape": {}}}}}, {"name": "module_apply_default/BoxPredictor_4/ClassPredictor_depthwise/act_quant/max", "op": "Const", "attr": {"dtype": {"type": "DT_FLOAT"}, "value": {"tensor": {"dtype": "DT_FLOAT", "tensorShape": {}}}}}, {"name": "module_apply_default/BoxPredictor_4/ClassPredictor/weights_quant/FakeQuantWithMinMaxVars", "op": "Const", "attr": {"dtype": {"type": "DT_FLOAT"}, "value": {"tensor": {"dtype": "DT_FLOAT", "tensorShape": {"dim": [{"size": "1"}, {"size": "1"}, {"size": "192"}, {"size": "6"}]}}}}}, {"name": "module_apply_default/BoxPredictor_4/ClassPredictor/biases", "op": "Const", "attr": {"dtype": {"type": "DT_FLOAT"}, "value": {"tensor": {"dtype": "DT_FLOAT", "tensorShape": {"dim": [{"size": "6"}]}}}}}, {"name": "module_apply_default/BoxPredictor_4/ClassPredictor/act_quant/min", "op": "Const", "attr": {"dtype": {"type": "DT_FLOAT"}, "value": {"tensor": {"dtype": "DT_FLOAT", "tensorShape": {}}}}}, {"name": "module_apply_default/BoxPredictor_4/ClassPredictor/act_quant/max", "op": "Const", "attr": {"value": {"tensor": {"dtype": "DT_FLOAT", "tensorShape": {}}}, "dtype": {"type": "DT_FLOAT"}}}, {"name": "module_apply_default/BoxPredictor_4/strided_slice_1/stack", "op": "Const", "attr": {"dtype": {"type": "DT_INT32"}, "value": {"tensor": {"dtype": "DT_INT32", "tensorShape": {"dim": [{"size": "1"}]}}}}}, {"name": "module_apply_default/BoxPredictor_4/strided_slice_1/stack_1", "op": "Const", "attr": {"dtype": {"type": "DT_INT32"}, "value": {"tensor": {"dtype": "DT_INT32", "tensorShape": {"dim": [{"size": "1"}]}}}}}, {"name": "module_apply_default/BoxPredictor_4/strided_slice_1/stack_2", "op": "Const", "attr": {"dtype": {"type": "DT_INT32"}, "value": {"tensor": {"dtype": "DT_INT32", "tensorShape": {"dim": [{"size": "1"}]}}}}}, {"name": "module_apply_default/BoxPredictor_4/Reshape_1/shape/1", "op": "Const", "attr": {"dtype": {"type": "DT_INT32"}, "value": {"tensor": {"dtype": "DT_INT32", "tensorShape": {}}}}}, {"name": "module_apply_default/BoxPredictor_4/Reshape_1/shape/2", "op": "Const", "attr": {"value": {"tensor": {"dtype": "DT_INT32", "tensorShape": {}}}, "dtype": {"type": "DT_INT32"}}}, {"name": "module_apply_default/BoxPredictor_5/ClassPredictor_depthwise/weights_quant/FakeQuantWithMinMaxVars", "op": "Const", "attr": {"dtype": {"type": "DT_FLOAT"}, "value": {"tensor": {"dtype": "DT_FLOAT", "tensorShape": {"dim": [{"size": "3"}, {"size": "3"}, {"size": "96"}, {"size": "1"}]}}}}}, {"name": "module_apply_default/BoxPredictor_5/ClassPredictor_depthwise/BatchNorm_Fold/bias", "op": "Const", "attr": {"dtype": {"type": "DT_FLOAT"}, "value": {"tensor": {"dtype": "DT_FLOAT", "tensorShape": {"dim": [{"size": "96"}]}}}}}, {"name": "module_apply_default/BoxPredictor_5/ClassPredictor_depthwise/act_quant/min", "op": "Const", "attr": {"dtype": {"type": "DT_FLOAT"}, "value": {"tensor": {"dtype": "DT_FLOAT", "tensorShape": {}}}}}, {"name": "module_apply_default/BoxPredictor_5/ClassPredictor_depthwise/act_quant/max", "op": "Const", "attr": {"dtype": {"type": "DT_FLOAT"}, "value": {"tensor": {"dtype": "DT_FLOAT", "tensorShape": {}}}}}, {"name": "module_apply_default/BoxPredictor_5/ClassPredictor/weights_quant/FakeQuantWithMinMaxVars", "op": "Const", "attr": {"value": {"tensor": {"dtype": "DT_FLOAT", "tensorShape": {"dim": [{"size": "1"}, {"size": "1"}, {"size": "96"}, {"size": "6"}]}}}, "dtype": {"type": "DT_FLOAT"}}}, {"name": "module_apply_default/BoxPredictor_5/ClassPredictor/biases", "op": "Const", "attr": {"value": {"tensor": {"dtype": "DT_FLOAT", "tensorShape": {"dim": [{"size": "6"}]}}}, "dtype": {"type": "DT_FLOAT"}}}, {"name": "module_apply_default/BoxPredictor_5/ClassPredictor/act_quant/min", "op": "Const", "attr": {"value": {"tensor": {"dtype": "DT_FLOAT", "tensorShape": {}}}, "dtype": {"type": "DT_FLOAT"}}}, {"name": "module_apply_default/BoxPredictor_5/ClassPredictor/act_quant/max", "op": "Const", "attr": {"value": {"tensor": {"dtype": "DT_FLOAT", "tensorShape": {}}}, "dtype": {"type": "DT_FLOAT"}}}, {"name": "module_apply_default/BoxPredictor_5/strided_slice_1/stack", "op": "Const", "attr": {"dtype": {"type": "DT_INT32"}, "value": {"tensor": {"dtype": "DT_INT32", "tensorShape": {"dim": [{"size": "1"}]}}}}}, {"name": "module_apply_default/BoxPredictor_5/strided_slice_1/stack_1", "op": "Const", "attr": {"dtype": {"type": "DT_INT32"}, "value": {"tensor": {"dtype": "DT_INT32", "tensorShape": {"dim": [{"size": "1"}]}}}}}, {"name": "module_apply_default/BoxPredictor_5/strided_slice_1/stack_2", "op": "Const", "attr": {"value": {"tensor": {"dtype": "DT_INT32", "tensorShape": {"dim": [{"size": "1"}]}}}, "dtype": {"type": "DT_INT32"}}}, {"name": "module_apply_default/BoxPredictor_5/Reshape_1/shape/1", "op": "Const", "attr": {"value": {"tensor": {"dtype": "DT_INT32", "tensorShape": {}}}, "dtype": {"type": "DT_INT32"}}}, {"name": "module_apply_default/BoxPredictor_5/Reshape_1/shape/2", "op": "Const", "attr": {"value": {"tensor": {"dtype": "DT_INT32", "tensorShape": {}}}, "dtype": {"type": "DT_INT32"}}}, {"name": "module_apply_default/concat_1/axis", "op": "Const", "attr": {"dtype": {"type": "DT_INT32"}, "value": {"tensor": {"dtype": "DT_INT32", "tensorShape": {}}}}}, {"name": "module_apply_default/Postprocessor/BatchMultiClassNonMaxSuppression/map/TensorArrayUnstack/range/start", "op": "Const", "attr": {"dtype": {"type": "DT_INT32"}, "value": {"tensor": {"dtype": "DT_INT32", "tensorShape": {}}}}}, {"name": "module_apply_default/Postprocessor/BatchMultiClassNonMaxSuppression/map/TensorArrayUnstack/strided_slice/stack", "op": "Const", "attr": {"dtype": {"type": "DT_INT32"}, "value": {"tensor": {"dtype": "DT_INT32", "tensorShape": {"dim": [{"size": "1"}]}}}}}, {"name": "module_apply_default/Postprocessor/BatchMultiClassNonMaxSuppression/map/TensorArrayUnstack/strided_slice/stack_1", "op": "Const", "attr": {"value": {"tensor": {"dtype": "DT_INT32", "tensorShape": {"dim": [{"size": "1"}]}}}, "dtype": {"type": "DT_INT32"}}}, {"name": "module_apply_default/Postprocessor/BatchMultiClassNonMaxSuppression/map/TensorArrayUnstack/strided_slice/stack_2", "op": "Const", "attr": {"value": {"tensor": {"dtype": "DT_INT32", "tensorShape": {"dim": [{"size": "1"}]}}}, "dtype": {"type": "DT_INT32"}}}, {"name": "module_apply_default/Postprocessor/BatchMultiClassNonMaxSuppression/map/TensorArrayUnstack/range/delta", "op": "Const", "attr": {"value": {"tensor": {"dtype": "DT_INT32", "tensorShape": {}}}, "dtype": {"type": "DT_INT32"}}}, {"name": "module_apply_default/Postprocessor/BatchMultiClassNonMaxSuppression/map/TensorArrayUnstack_4/range/start", "op": "Const", "attr": {"value": {"tensor": {"dtype": "DT_INT32", "tensorShape": {}}}, "dtype": {"type": "DT_INT32"}}}, {"name": "module_apply_default/Postprocessor/BatchMultiClassNonMaxSuppression/map/TensorArrayUnstack_4/strided_slice/stack", "op": "Const", "attr": {"value": {"tensor": {"dtype": "DT_INT32", "tensorShape": {"dim": [{"size": "1"}]}}}, "dtype": {"type": "DT_INT32"}}}, {"name": "module_apply_default/Postprocessor/BatchMultiClassNonMaxSuppression/map/TensorArrayUnstack_4/strided_slice/stack_1", "op": "Const", "attr": {"dtype": {"type": "DT_INT32"}, "value": {"tensor": {"dtype": "DT_INT32", "tensorShape": {"dim": [{"size": "1"}]}}}}}, {"name": "module_apply_default/Postprocessor/BatchMultiClassNonMaxSuppression/map/TensorArrayUnstack_4/strided_slice/stack_2", "op": "Const", "attr": {"dtype": {"type": "DT_INT32"}, "value": {"tensor": {"dtype": "DT_INT32", "tensorShape": {"dim": [{"size": "1"}]}}}}}, {"name": "module_apply_default/Postprocessor/BatchMultiClassNonMaxSuppression/map/TensorArrayUnstack_4/range/delta", "op": "Const", "attr": {"value": {"tensor": {"dtype": "DT_INT32", "tensorShape": {}}}, "dtype": {"type": "DT_INT32"}}}, {"name": "module_apply_default/Postprocessor/BatchMultiClassNonMaxSuppression/strided_slice/stack", "op": "Const", "attr": {"value": {"tensor": {"dtype": "DT_INT32", "tensorShape": {"dim": [{"size": "1"}]}}}, "dtype": {"type": "DT_INT32"}}}, {"name": "module_apply_default/Postprocessor/BatchMultiClassNonMaxSuppression/strided_slice/stack_1", "op": "Const", "attr": {"value": {"tensor": {"dtype": "DT_INT32", "tensorShape": {"dim": [{"size": "1"}]}}}, "dtype": {"type": "DT_INT32"}}}, {"name": "module_apply_default/Postprocessor/BatchMultiClassNonMaxSuppression/strided_slice/stack_2", "op": "Const", "attr": {"dtype": {"type": "DT_INT32"}, "value": {"tensor": {"dtype": "DT_INT32", "tensorShape": {"dim": [{"size": "1"}]}}}}}, {"name": "module_apply_default/Postprocessor/BatchMultiClassNonMaxSuppression/ones/Const", "op": "Const", "attr": {"dtype": {"type": "DT_INT32"}, "value": {"tensor": {"dtype": "DT_INT32", "tensorShape": {}}}}}, {"name": "module_apply_default/Postprocessor/BatchMultiClassNonMaxSuppression/strided_slice_1/stack", "op": "Const", "attr": {"dtype": {"type": "DT_INT32"}, "value": {"tensor": {"dtype": "DT_INT32", "tensorShape": {"dim": [{"size": "1"}]}}}}}, {"name": "module_apply_default/Postprocessor/BatchMultiClassNonMaxSuppression/strided_slice_1/stack_1", "op": "Const", "attr": {"dtype": {"type": "DT_INT32"}, "value": {"tensor": {"dtype": "DT_INT32", "tensorShape": {"dim": [{"size": "1"}]}}}}}, {"name": "module_apply_default/Postprocessor/BatchMultiClassNonMaxSuppression/strided_slice_1/stack_2", "op": "Const", "attr": {"dtype": {"type": "DT_INT32"}, "value": {"tensor": {"dtype": "DT_INT32", "tensorShape": {"dim": [{"size": "1"}]}}}}}, {"name": "module_apply_default/Postprocessor/BatchMultiClassNonMaxSuppression/map/TensorArrayUnstack_3/range/start", "op": "Const", "attr": {"dtype": {"type": "DT_INT32"}, "value": {"tensor": {"dtype": "DT_INT32", "tensorShape": {}}}}}, {"name": "module_apply_default/Postprocessor/BatchMultiClassNonMaxSuppression/map/TensorArrayUnstack_3/strided_slice/stack", "op": "Const", "attr": {"dtype": {"type": "DT_INT32"}, "value": {"tensor": {"dtype": "DT_INT32", "tensorShape": {"dim": [{"size": "1"}]}}}}}, {"name": "module_apply_default/Postprocessor/BatchMultiClassNonMaxSuppression/map/TensorArrayUnstack_3/strided_slice/stack_1", "op": "Const", "attr": {"dtype": {"type": "DT_INT32"}, "value": {"tensor": {"dtype": "DT_INT32", "tensorShape": {"dim": [{"size": "1"}]}}}}}, {"name": "module_apply_default/Postprocessor/BatchMultiClassNonMaxSuppression/map/TensorArrayUnstack_3/strided_slice/stack_2", "op": "Const", "attr": {"dtype": {"type": "DT_INT32"}, "value": {"tensor": {"dtype": "DT_INT32", "tensorShape": {"dim": [{"size": "1"}]}}}}}, {"name": "module_apply_default/Postprocessor/BatchMultiClassNonMaxSuppression/map/TensorArrayUnstack_3/range/delta", "op": "Const", "attr": {"value": {"tensor": {"dtype": "DT_INT32", "tensorShape": {}}}, "dtype": {"type": "DT_INT32"}}}, {"name": "ConstantFolding/module_apply_default/Postprocessor/div_recip", "op": "Const", "attr": {"dtype": {"type": "DT_FLOAT"}, "value": {"tensor": {"dtype": "DT_FLOAT", "tensorShape": {}}}}}, {"name": "module_apply_default/Preprocessor/map/TensorArrayStack_1/range/start", "op": "Const", "attr": {"value": {"tensor": {"dtype": "DT_INT32", "tensorShape": {}}}, "dtype": {"type": "DT_INT32"}}}, {"name": "module_apply_default/Preprocessor/map/TensorArrayStack_1/range/delta", "op": "Const", "attr": {"dtype": {"type": "DT_INT32"}, "value": {"tensor": {"dtype": "DT_INT32", "tensorShape": {}}}}}, {"name": "ConstantFolding/module_apply_default/Postprocessor/div_1_recip", "op": "Const", "attr": {"dtype": {"type": "DT_FLOAT"}, "value": {"tensor": {"dtype": "DT_FLOAT", "tensorShape": {}}}}}, {"name": "module_apply_default/Postprocessor/BatchMultiClassNonMaxSuppression/map/Const", "op": "Const", "attr": {"value": {"tensor": {"dtype": "DT_INT32", "tensorShape": {}}}, "dtype": {"type": "DT_INT32"}}}, {"name": "module_apply_default/Postprocessor/BatchMultiClassNonMaxSuppression/map/while/iteration_counter", "op": "Const", "attr": {"value": {"tensor": {"dtype": "DT_INT32", "tensorShape": {}}}, "dtype": {"type": "DT_INT32"}}}, {"name": "ConstantFolding/module_apply_default/Postprocessor/Decode/div_4_recip", "op": "Const", "attr": {"dtype": {"type": "DT_FLOAT"}, "value": {"tensor": {"dtype": "DT_FLOAT", "tensorShape": {}}}}}, {"name": "ConstantFolding/module_apply_default/Postprocessor/Decode/div_5_recip", "op": "Const", "attr": {"value": {"tensor": {"dtype": "DT_FLOAT", "tensorShape": {}}}, "dtype": {"type": "DT_FLOAT"}}}, {"name": "ConstantFolding/module_apply_default/Postprocessor/Decode/div_recip", "op": "Const", "attr": {"value": {"tensor": {"dtype": "DT_FLOAT", "tensorShape": {}}}, "dtype": {"type": "DT_FLOAT"}}}, {"name": "ConstantFolding/module_apply_default/Postprocessor/Decode/get_center_coordinates_and_sizes/div_recip", "op": "Const", "attr": {"value": {"tensor": {"dtype": "DT_FLOAT", "tensorShape": {}}}, "dtype": {"type": "DT_FLOAT"}}}, {"name": "ConstantFolding/module_apply_default/Postprocessor/Decode/div_2_recip", "op": "Const", "attr": {"value": {"tensor": {"dtype": "DT_FLOAT", "tensorShape": {}}}, "dtype": {"type": "DT_FLOAT"}}}, {"name": "ConstantFolding/module_apply_default/Postprocessor/Decode/div_6_recip", "op": "Const", "attr": {"value": {"tensor": {"dtype": "DT_FLOAT", "tensorShape": {}}}, "dtype": {"type": "DT_FLOAT"}}}, {"name": "ConstantFolding/module_apply_default/Postprocessor/Decode/div_1_recip", "op": "Const", "attr": {"value": {"tensor": {"dtype": "DT_FLOAT", "tensorShape": {}}}, "dtype": {"type": "DT_FLOAT"}}}, {"name": "ConstantFolding/module_apply_default/Postprocessor/Decode/get_center_coordinates_and_sizes/div_1_recip", "op": "Const", "attr": {"value": {"tensor": {"dtype": "DT_FLOAT", "tensorShape": {}}}, "dtype": {"type": "DT_FLOAT"}}}, {"name": "module_apply_default/Postprocessor/Reshape_1/shape", "op": "Const", "attr": {"value": {"tensor": {"dtype": "DT_INT32", "tensorShape": {"dim": [{"size": "2"}]}}}, "dtype": {"type": "DT_INT32"}}}, {"name": "module_apply_default/Postprocessor/Decode/transpose/perm", "op": "Const", "attr": {"value": {"tensor": {"dtype": "DT_INT32", "tensorShape": {"dim": [{"size": "2"}]}}}, "dtype": {"type": "DT_INT32"}}}, {"name": "ConstantFolding/module_apply_default/Postprocessor/Decode/div_3_recip", "op": "Const", "attr": {"value": {"tensor": {"dtype": "DT_FLOAT", "tensorShape": {}}}, "dtype": {"type": "DT_FLOAT"}}}, {"name": "module_apply_default/Postprocessor/ExpandDims", "op": "Const", "attr": {"value": {"tensor": {"dtype": "DT_FLOAT", "tensorShape": {"dim": [{"size": "1"}, {"size": "738"}, {"size": "4"}]}}}, "dtype": {"type": "DT_FLOAT"}}}, {"name": "module_apply_default/Postprocessor/Tile/multiples/1", "op": "Const", "attr": {"value": {"tensor": {"dtype": "DT_INT32", "tensorShape": {}}}, "dtype": {"type": "DT_INT32"}}}, {"name": "module_apply_default/Postprocessor/Tile/multiples/2", "op": "Const", "attr": {"value": {"tensor": {"dtype": "DT_INT32", "tensorShape": {}}}, "dtype": {"type": "DT_INT32"}}}, {"name": "module_apply_default/Postprocessor/Reshape/shape", "op": "Const", "attr": {"dtype": {"type": "DT_INT32"}, "value": {"tensor": {"dtype": "DT_INT32", "tensorShape": {"dim": [{"size": "2"}]}}}}}, {"name": "module_apply_default/Postprocessor/Decode/get_center_coordinates_and_sizes/transpose/perm", "op": "Const", "attr": {"dtype": {"type": "DT_INT32"}, "value": {"tensor": {"dtype": "DT_INT32", "tensorShape": {"dim": [{"size": "2"}]}}}}}, {"name": "ConstantFolding/module_apply_default/Postprocessor/Decode/div_7_recip", "op": "Const", "attr": {"value": {"tensor": {"dtype": "DT_FLOAT", "tensorShape": {}}}, "dtype": {"type": "DT_FLOAT"}}}, {"name": "module_apply_default/Postprocessor/Decode/transpose_1/perm", "op": "Const", "attr": {"value": {"tensor": {"dtype": "DT_INT32", "tensorShape": {"dim": [{"size": "2"}]}}}, "dtype": {"type": "DT_INT32"}}}, {"name": "module_apply_default/Postprocessor/strided_slice/stack", "op": "Const", "attr": {"value": {"tensor": {"dtype": "DT_INT32", "tensorShape": {"dim": [{"size": "1"}]}}}, "dtype": {"type": "DT_INT32"}}}, {"name": "module_apply_default/Postprocessor/strided_slice/stack_1", "op": "Const", "attr": {"dtype": {"type": "DT_INT32"}, "value": {"tensor": {"dtype": "DT_INT32", "tensorShape": {"dim": [{"size": "1"}]}}}}}, {"name": "module_apply_default/Postprocessor/strided_slice/stack_2", "op": "Const", "attr": {"dtype": {"type": "DT_INT32"}, "value": {"tensor": {"dtype": "DT_INT32", "tensorShape": {"dim": [{"size": "1"}]}}}}}, {"name": "module_apply_default/BoxPredictor_0/BoxEncodingPredictor_depthwise/weights_quant/FakeQuantWithMinMaxVars", "op": "Const", "attr": {"value": {"tensor": {"dtype": "DT_FLOAT", "tensorShape": {"dim": [{"size": "3"}, {"size": "3"}, {"size": "432"}, {"size": "1"}]}}}, "dtype": {"type": "DT_FLOAT"}}}, {"name": "module_apply_default/BoxPredictor_0/BoxEncodingPredictor_depthwise/BatchNorm_Fold/bias", "op": "Const", "attr": {"value": {"tensor": {"dtype": "DT_FLOAT", "tensorShape": {"dim": [{"size": "432"}]}}}, "dtype": {"type": "DT_FLOAT"}}}, {"name": "module_apply_default/BoxPredictor_0/BoxEncodingPredictor_depthwise/act_quant/min", "op": "Const", "attr": {"value": {"tensor": {"dtype": "DT_FLOAT", "tensorShape": {}}}, "dtype": {"type": "DT_FLOAT"}}}, {"name": "module_apply_default/BoxPredictor_0/BoxEncodingPredictor_depthwise/act_quant/max", "op": "Const", "attr": {"dtype": {"type": "DT_FLOAT"}, "value": {"tensor": {"dtype": "DT_FLOAT", "tensorShape": {}}}}}, {"name": "module_apply_default/BoxPredictor_0/BoxEncodingPredictor/weights_quant/FakeQuantWithMinMaxVars", "op": "Const", "attr": {"dtype": {"type": "DT_FLOAT"}, "value": {"tensor": {"dtype": "DT_FLOAT", "tensorShape": {"dim": [{"size": "1"}, {"size": "1"}, {"size": "432"}, {"size": "12"}]}}}}}, {"name": "module_apply_default/BoxPredictor_0/BoxEncodingPredictor/biases", "op": "Const", "attr": {"value": {"tensor": {"dtype": "DT_FLOAT", "tensorShape": {"dim": [{"size": "12"}]}}}, "dtype": {"type": "DT_FLOAT"}}}, {"name": "module_apply_default/BoxPredictor_0/BoxEncodingPredictor/act_quant/min", "op": "Const", "attr": {"value": {"tensor": {"dtype": "DT_FLOAT", "tensorShape": {}}}, "dtype": {"type": "DT_FLOAT"}}}, {"name": "module_apply_default/BoxPredictor_0/BoxEncodingPredictor/act_quant/max", "op": "Const", "attr": {"value": {"tensor": {"dtype": "DT_FLOAT", "tensorShape": {}}}, "dtype": {"type": "DT_FLOAT"}}}, {"name": "module_apply_default/BoxPredictor_0/strided_slice/stack", "op": "Const", "attr": {"value": {"tensor": {"dtype": "DT_INT32", "tensorShape": {"dim": [{"size": "1"}]}}}, "dtype": {"type": "DT_INT32"}}}, {"name": "module_apply_default/BoxPredictor_0/strided_slice/stack_1", "op": "Const", "attr": {"dtype": {"type": "DT_INT32"}, "value": {"tensor": {"dtype": "DT_INT32", "tensorShape": {"dim": [{"size": "1"}]}}}}}, {"name": "module_apply_default/BoxPredictor_0/strided_slice/stack_2", "op": "Const", "attr": {"value": {"tensor": {"dtype": "DT_INT32", "tensorShape": {"dim": [{"size": "1"}]}}}, "dtype": {"type": "DT_INT32"}}}, {"name": "module_apply_default/BoxPredictor_0/Reshape/shape/1", "op": "Const", "attr": {"value": {"tensor": {"dtype": "DT_INT32", "tensorShape": {}}}, "dtype": {"type": "DT_INT32"}}}, {"name": "module_apply_default/BoxPredictor_0/Reshape/shape/2", "op": "Const", "attr": {"value": {"tensor": {"dtype": "DT_INT32", "tensorShape": {}}}, "dtype": {"type": "DT_INT32"}}}, {"name": "module_apply_default/BoxPredictor_0/Reshape/shape/3", "op": "Const", "attr": {"dtype": {"type": "DT_INT32"}, "value": {"tensor": {"dtype": "DT_INT32", "tensorShape": {}}}}}, {"name": "module_apply_default/BoxPredictor_1/BoxEncodingPredictor_depthwise/weights_quant/FakeQuantWithMinMaxVars", "op": "Const", "attr": {"dtype": {"type": "DT_FLOAT"}, "value": {"tensor": {"dtype": "DT_FLOAT", "tensorShape": {"dim": [{"size": "3"}, {"size": "3"}, {"size": "960"}, {"size": "1"}]}}}}}, {"name": "module_apply_default/BoxPredictor_1/BoxEncodingPredictor_depthwise/BatchNorm_Fold/bias", "op": "Const", "attr": {"dtype": {"type": "DT_FLOAT"}, "value": {"tensor": {"dtype": "DT_FLOAT", "tensorShape": {"dim": [{"size": "960"}]}}}}}, {"name": "module_apply_default/BoxPredictor_1/BoxEncodingPredictor_depthwise/act_quant/min", "op": "Const", "attr": {"dtype": {"type": "DT_FLOAT"}, "value": {"tensor": {"dtype": "DT_FLOAT", "tensorShape": {}}}}}, {"name": "module_apply_default/BoxPredictor_1/BoxEncodingPredictor_depthwise/act_quant/max", "op": "Const", "attr": {"value": {"tensor": {"dtype": "DT_FLOAT", "tensorShape": {}}}, "dtype": {"type": "DT_FLOAT"}}}, {"name": "module_apply_default/BoxPredictor_1/BoxEncodingPredictor/weights_quant/FakeQuantWithMinMaxVars", "op": "Const", "attr": {"dtype": {"type": "DT_FLOAT"}, "value": {"tensor": {"dtype": "DT_FLOAT", "tensorShape": {"dim": [{"size": "1"}, {"size": "1"}, {"size": "960"}, {"size": "24"}]}}}}}, {"name": "module_apply_default/BoxPredictor_1/BoxEncodingPredictor/biases", "op": "Const", "attr": {"value": {"tensor": {"dtype": "DT_FLOAT", "tensorShape": {"dim": [{"size": "24"}]}}}, "dtype": {"type": "DT_FLOAT"}}}, {"name": "module_apply_default/BoxPredictor_1/BoxEncodingPredictor/act_quant/min", "op": "Const", "attr": {"value": {"tensor": {"dtype": "DT_FLOAT", "tensorShape": {}}}, "dtype": {"type": "DT_FLOAT"}}}, {"name": "module_apply_default/BoxPredictor_1/BoxEncodingPredictor/act_quant/max", "op": "Const", "attr": {"dtype": {"type": "DT_FLOAT"}, "value": {"tensor": {"dtype": "DT_FLOAT", "tensorShape": {}}}}}, {"name": "module_apply_default/BoxPredictor_1/strided_slice/stack", "op": "Const", "attr": {"value": {"tensor": {"dtype": "DT_INT32", "tensorShape": {"dim": [{"size": "1"}]}}}, "dtype": {"type": "DT_INT32"}}}, {"name": "module_apply_default/BoxPredictor_1/strided_slice/stack_1", "op": "Const", "attr": {"dtype": {"type": "DT_INT32"}, "value": {"tensor": {"dtype": "DT_INT32", "tensorShape": {"dim": [{"size": "1"}]}}}}}, {"name": "module_apply_default/BoxPredictor_1/strided_slice/stack_2", "op": "Const", "attr": {"value": {"tensor": {"dtype": "DT_INT32", "tensorShape": {"dim": [{"size": "1"}]}}}, "dtype": {"type": "DT_INT32"}}}, {"name": "module_apply_default/BoxPredictor_1/Reshape/shape/1", "op": "Const", "attr": {"dtype": {"type": "DT_INT32"}, "value": {"tensor": {"dtype": "DT_INT32", "tensorShape": {}}}}}, {"name": "module_apply_default/BoxPredictor_1/Reshape/shape/2", "op": "Const", "attr": {"value": {"tensor": {"dtype": "DT_INT32", "tensorShape": {}}}, "dtype": {"type": "DT_INT32"}}}, {"name": "module_apply_default/BoxPredictor_1/Reshape/shape/3", "op": "Const", "attr": {"dtype": {"type": "DT_INT32"}, "value": {"tensor": {"dtype": "DT_INT32", "tensorShape": {}}}}}, {"name": "module_apply_default/BoxPredictor_2/BoxEncodingPredictor_depthwise/weights_quant/FakeQuantWithMinMaxVars", "op": "Const", "attr": {"value": {"tensor": {"dtype": "DT_FLOAT", "tensorShape": {"dim": [{"size": "3"}, {"size": "3"}, {"size": "384"}, {"size": "1"}]}}}, "dtype": {"type": "DT_FLOAT"}}}, {"name": "module_apply_default/BoxPredictor_2/BoxEncodingPredictor_depthwise/BatchNorm_Fold/bias", "op": "Const", "attr": {"dtype": {"type": "DT_FLOAT"}, "value": {"tensor": {"dtype": "DT_FLOAT", "tensorShape": {"dim": [{"size": "384"}]}}}}}, {"name": "module_apply_default/BoxPredictor_2/BoxEncodingPredictor_depthwise/act_quant/min", "op": "Const", "attr": {"value": {"tensor": {"dtype": "DT_FLOAT", "tensorShape": {}}}, "dtype": {"type": "DT_FLOAT"}}}, {"name": "module_apply_default/BoxPredictor_2/BoxEncodingPredictor_depthwise/act_quant/max", "op": "Const", "attr": {"dtype": {"type": "DT_FLOAT"}, "value": {"tensor": {"dtype": "DT_FLOAT", "tensorShape": {}}}}}, {"name": "module_apply_default/BoxPredictor_2/BoxEncodingPredictor/weights_quant/FakeQuantWithMinMaxVars", "op": "Const", "attr": {"value": {"tensor": {"dtype": "DT_FLOAT", "tensorShape": {"dim": [{"size": "1"}, {"size": "1"}, {"size": "384"}, {"size": "24"}]}}}, "dtype": {"type": "DT_FLOAT"}}}, {"name": "module_apply_default/BoxPredictor_2/BoxEncodingPredictor/biases", "op": "Const", "attr": {"dtype": {"type": "DT_FLOAT"}, "value": {"tensor": {"dtype": "DT_FLOAT", "tensorShape": {"dim": [{"size": "24"}]}}}}}, {"name": "module_apply_default/BoxPredictor_2/BoxEncodingPredictor/act_quant/min", "op": "Const", "attr": {"dtype": {"type": "DT_FLOAT"}, "value": {"tensor": {"dtype": "DT_FLOAT", "tensorShape": {}}}}}, {"name": "module_apply_default/BoxPredictor_2/BoxEncodingPredictor/act_quant/max", "op": "Const", "attr": {"dtype": {"type": "DT_FLOAT"}, "value": {"tensor": {"dtype": "DT_FLOAT", "tensorShape": {}}}}}, {"name": "module_apply_default/BoxPredictor_2/strided_slice/stack", "op": "Const", "attr": {"dtype": {"type": "DT_INT32"}, "value": {"tensor": {"dtype": "DT_INT32", "tensorShape": {"dim": [{"size": "1"}]}}}}}, {"name": "module_apply_default/BoxPredictor_2/strided_slice/stack_1", "op": "Const", "attr": {"value": {"tensor": {"dtype": "DT_INT32", "tensorShape": {"dim": [{"size": "1"}]}}}, "dtype": {"type": "DT_INT32"}}}, {"name": "module_apply_default/BoxPredictor_2/strided_slice/stack_2", "op": "Const", "attr": {"value": {"tensor": {"dtype": "DT_INT32", "tensorShape": {"dim": [{"size": "1"}]}}}, "dtype": {"type": "DT_INT32"}}}, {"name": "module_apply_default/BoxPredictor_2/Reshape/shape/1", "op": "Const", "attr": {"dtype": {"type": "DT_INT32"}, "value": {"tensor": {"dtype": "DT_INT32", "tensorShape": {}}}}}, {"name": "module_apply_default/BoxPredictor_2/Reshape/shape/2", "op": "Const", "attr": {"value": {"tensor": {"dtype": "DT_INT32", "tensorShape": {}}}, "dtype": {"type": "DT_INT32"}}}, {"name": "module_apply_default/BoxPredictor_2/Reshape/shape/3", "op": "Const", "attr": {"value": {"tensor": {"dtype": "DT_INT32", "tensorShape": {}}}, "dtype": {"type": "DT_INT32"}}}, {"name": "module_apply_default/BoxPredictor_3/BoxEncodingPredictor_depthwise/weights_quant/FakeQuantWithMinMaxVars", "op": "Const", "attr": {"value": {"tensor": {"dtype": "DT_FLOAT", "tensorShape": {"dim": [{"size": "3"}, {"size": "3"}, {"size": "192"}, {"size": "1"}]}}}, "dtype": {"type": "DT_FLOAT"}}}, {"name": "module_apply_default/BoxPredictor_3/BoxEncodingPredictor_depthwise/BatchNorm_Fold/bias", "op": "Const", "attr": {"value": {"tensor": {"dtype": "DT_FLOAT", "tensorShape": {"dim": [{"size": "192"}]}}}, "dtype": {"type": "DT_FLOAT"}}}, {"name": "module_apply_default/BoxPredictor_3/BoxEncodingPredictor_depthwise/act_quant/min", "op": "Const", "attr": {"value": {"tensor": {"dtype": "DT_FLOAT", "tensorShape": {}}}, "dtype": {"type": "DT_FLOAT"}}}, {"name": "module_apply_default/BoxPredictor_3/BoxEncodingPredictor_depthwise/act_quant/max", "op": "Const", "attr": {"value": {"tensor": {"dtype": "DT_FLOAT", "tensorShape": {}}}, "dtype": {"type": "DT_FLOAT"}}}, {"name": "module_apply_default/BoxPredictor_3/BoxEncodingPredictor/weights_quant/FakeQuantWithMinMaxVars", "op": "Const", "attr": {"dtype": {"type": "DT_FLOAT"}, "value": {"tensor": {"dtype": "DT_FLOAT", "tensorShape": {"dim": [{"size": "1"}, {"size": "1"}, {"size": "192"}, {"size": "24"}]}}}}}, {"name": "module_apply_default/BoxPredictor_3/BoxEncodingPredictor/biases", "op": "Const", "attr": {"value": {"tensor": {"dtype": "DT_FLOAT", "tensorShape": {"dim": [{"size": "24"}]}}}, "dtype": {"type": "DT_FLOAT"}}}, {"name": "module_apply_default/BoxPredictor_3/BoxEncodingPredictor/act_quant/min", "op": "Const", "attr": {"dtype": {"type": "DT_FLOAT"}, "value": {"tensor": {"dtype": "DT_FLOAT", "tensorShape": {}}}}}, {"name": "module_apply_default/BoxPredictor_3/BoxEncodingPredictor/act_quant/max", "op": "Const", "attr": {"dtype": {"type": "DT_FLOAT"}, "value": {"tensor": {"dtype": "DT_FLOAT", "tensorShape": {}}}}}, {"name": "module_apply_default/BoxPredictor_3/strided_slice/stack", "op": "Const", "attr": {"dtype": {"type": "DT_INT32"}, "value": {"tensor": {"dtype": "DT_INT32", "tensorShape": {"dim": [{"size": "1"}]}}}}}, {"name": "module_apply_default/BoxPredictor_3/strided_slice/stack_1", "op": "Const", "attr": {"dtype": {"type": "DT_INT32"}, "value": {"tensor": {"dtype": "DT_INT32", "tensorShape": {"dim": [{"size": "1"}]}}}}}, {"name": "module_apply_default/BoxPredictor_3/strided_slice/stack_2", "op": "Const", "attr": {"dtype": {"type": "DT_INT32"}, "value": {"tensor": {"dtype": "DT_INT32", "tensorShape": {"dim": [{"size": "1"}]}}}}}, {"name": "module_apply_default/BoxPredictor_3/Reshape/shape/1", "op": "Const", "attr": {"dtype": {"type": "DT_INT32"}, "value": {"tensor": {"dtype": "DT_INT32", "tensorShape": {}}}}}, {"name": "module_apply_default/BoxPredictor_3/Reshape/shape/2", "op": "Const", "attr": {"value": {"tensor": {"dtype": "DT_INT32", "tensorShape": {}}}, "dtype": {"type": "DT_INT32"}}}, {"name": "module_apply_default/BoxPredictor_3/Reshape/shape/3", "op": "Const", "attr": {"dtype": {"type": "DT_INT32"}, "value": {"tensor": {"dtype": "DT_INT32", "tensorShape": {}}}}}, {"name": "module_apply_default/BoxPredictor_4/BoxEncodingPredictor_depthwise/weights_quant/FakeQuantWithMinMaxVars", "op": "Const", "attr": {"value": {"tensor": {"dtype": "DT_FLOAT", "tensorShape": {"dim": [{"size": "3"}, {"size": "3"}, {"size": "192"}, {"size": "1"}]}}}, "dtype": {"type": "DT_FLOAT"}}}, {"name": "module_apply_default/BoxPredictor_4/BoxEncodingPredictor_depthwise/BatchNorm_Fold/bias", "op": "Const", "attr": {"value": {"tensor": {"dtype": "DT_FLOAT", "tensorShape": {"dim": [{"size": "192"}]}}}, "dtype": {"type": "DT_FLOAT"}}}, {"name": "module_apply_default/BoxPredictor_4/BoxEncodingPredictor_depthwise/act_quant/min", "op": "Const", "attr": {"dtype": {"type": "DT_FLOAT"}, "value": {"tensor": {"dtype": "DT_FLOAT", "tensorShape": {}}}}}, {"name": "module_apply_default/BoxPredictor_4/BoxEncodingPredictor_depthwise/act_quant/max", "op": "Const", "attr": {"dtype": {"type": "DT_FLOAT"}, "value": {"tensor": {"dtype": "DT_FLOAT", "tensorShape": {}}}}}, {"name": "module_apply_default/BoxPredictor_4/BoxEncodingPredictor/weights_quant/FakeQuantWithMinMaxVars", "op": "Const", "attr": {"dtype": {"type": "DT_FLOAT"}, "value": {"tensor": {"dtype": "DT_FLOAT", "tensorShape": {"dim": [{"size": "1"}, {"size": "1"}, {"size": "192"}, {"size": "24"}]}}}}}, {"name": "module_apply_default/BoxPredictor_4/BoxEncodingPredictor/biases", "op": "Const", "attr": {"dtype": {"type": "DT_FLOAT"}, "value": {"tensor": {"dtype": "DT_FLOAT", "tensorShape": {"dim": [{"size": "24"}]}}}}}, {"name": "module_apply_default/BoxPredictor_4/BoxEncodingPredictor/act_quant/min", "op": "Const", "attr": {"value": {"tensor": {"dtype": "DT_FLOAT", "tensorShape": {}}}, "dtype": {"type": "DT_FLOAT"}}}, {"name": "module_apply_default/BoxPredictor_4/BoxEncodingPredictor/act_quant/max", "op": "Const", "attr": {"value": {"tensor": {"dtype": "DT_FLOAT", "tensorShape": {}}}, "dtype": {"type": "DT_FLOAT"}}}, {"name": "module_apply_default/BoxPredictor_4/strided_slice/stack", "op": "Const", "attr": {"value": {"tensor": {"dtype": "DT_INT32", "tensorShape": {"dim": [{"size": "1"}]}}}, "dtype": {"type": "DT_INT32"}}}, {"name": "module_apply_default/BoxPredictor_4/strided_slice/stack_1", "op": "Const", "attr": {"value": {"tensor": {"dtype": "DT_INT32", "tensorShape": {"dim": [{"size": "1"}]}}}, "dtype": {"type": "DT_INT32"}}}, {"name": "module_apply_default/BoxPredictor_4/strided_slice/stack_2", "op": "Const", "attr": {"value": {"tensor": {"dtype": "DT_INT32", "tensorShape": {"dim": [{"size": "1"}]}}}, "dtype": {"type": "DT_INT32"}}}, {"name": "module_apply_default/BoxPredictor_4/Reshape/shape/1", "op": "Const", "attr": {"value": {"tensor": {"dtype": "DT_INT32", "tensorShape": {}}}, "dtype": {"type": "DT_INT32"}}}, {"name": "module_apply_default/BoxPredictor_4/Reshape/shape/2", "op": "Const", "attr": {"dtype": {"type": "DT_INT32"}, "value": {"tensor": {"dtype": "DT_INT32", "tensorShape": {}}}}}, {"name": "module_apply_default/BoxPredictor_4/Reshape/shape/3", "op": "Const", "attr": {"value": {"tensor": {"dtype": "DT_INT32", "tensorShape": {}}}, "dtype": {"type": "DT_INT32"}}}, {"name": "module_apply_default/BoxPredictor_5/BoxEncodingPredictor_depthwise/weights_quant/FakeQuantWithMinMaxVars", "op": "Const", "attr": {"value": {"tensor": {"dtype": "DT_FLOAT", "tensorShape": {"dim": [{"size": "3"}, {"size": "3"}, {"size": "96"}, {"size": "1"}]}}}, "dtype": {"type": "DT_FLOAT"}}}, {"name": "module_apply_default/BoxPredictor_5/BoxEncodingPredictor_depthwise/BatchNorm_Fold/bias", "op": "Const", "attr": {"value": {"tensor": {"dtype": "DT_FLOAT", "tensorShape": {"dim": [{"size": "96"}]}}}, "dtype": {"type": "DT_FLOAT"}}}, {"name": "module_apply_default/BoxPredictor_5/BoxEncodingPredictor_depthwise/act_quant/min", "op": "Const", "attr": {"dtype": {"type": "DT_FLOAT"}, "value": {"tensor": {"dtype": "DT_FLOAT", "tensorShape": {}}}}}, {"name": "module_apply_default/BoxPredictor_5/BoxEncodingPredictor_depthwise/act_quant/max", "op": "Const", "attr": {"value": {"tensor": {"dtype": "DT_FLOAT", "tensorShape": {}}}, "dtype": {"type": "DT_FLOAT"}}}, {"name": "module_apply_default/BoxPredictor_5/BoxEncodingPredictor/weights_quant/FakeQuantWithMinMaxVars", "op": "Const", "attr": {"value": {"tensor": {"dtype": "DT_FLOAT", "tensorShape": {"dim": [{"size": "1"}, {"size": "1"}, {"size": "96"}, {"size": "24"}]}}}, "dtype": {"type": "DT_FLOAT"}}}, {"name": "module_apply_default/BoxPredictor_5/BoxEncodingPredictor/biases", "op": "Const", "attr": {"dtype": {"type": "DT_FLOAT"}, "value": {"tensor": {"dtype": "DT_FLOAT", "tensorShape": {"dim": [{"size": "24"}]}}}}}, {"name": "module_apply_default/BoxPredictor_5/BoxEncodingPredictor/act_quant/min", "op": "Const", "attr": {"value": {"tensor": {"dtype": "DT_FLOAT", "tensorShape": {}}}, "dtype": {"type": "DT_FLOAT"}}}, {"name": "module_apply_default/BoxPredictor_5/BoxEncodingPredictor/act_quant/max", "op": "Const", "attr": {"dtype": {"type": "DT_FLOAT"}, "value": {"tensor": {"dtype": "DT_FLOAT", "tensorShape": {}}}}}, {"name": "module_apply_default/FeatureExtractor/MobilenetV2/expanded_conv_15/expand/weights_quant/FakeQuantWithMinMaxVars", "op": "Const", "attr": {"value": {"tensor": {"dtype": "DT_FLOAT", "tensorShape": {"dim": [{"size": "1"}, {"size": "1"}, {"size": "120"}, {"size": "720"}]}}}, "dtype": {"type": "DT_FLOAT"}}}, {"name": "module_apply_default/FeatureExtractor/MobilenetV2/expanded_conv_15/expand/BatchNorm_Fold/bias", "op": "Const", "attr": {"value": {"tensor": {"dtype": "DT_FLOAT", "tensorShape": {"dim": [{"size": "720"}]}}}, "dtype": {"type": "DT_FLOAT"}}}, {"name": "module_apply_default/FeatureExtractor/MobilenetV2/expanded_conv_15/expand/act_quant/min", "op": "Const", "attr": {"value": {"tensor": {"dtype": "DT_FLOAT", "tensorShape": {}}}, "dtype": {"type": "DT_FLOAT"}}}, {"name": "module_apply_default/FeatureExtractor/MobilenetV2/expanded_conv_15/expand/act_quant/max", "op": "Const", "attr": {"value": {"tensor": {"dtype": "DT_FLOAT", "tensorShape": {}}}, "dtype": {"type": "DT_FLOAT"}}}, {"name": "module_apply_default/FeatureExtractor/MobilenetV2/expanded_conv_15/depthwise/weights_quant/FakeQuantWithMinMaxVars", "op": "Const", "attr": {"value": {"tensor": {"dtype": "DT_FLOAT", "tensorShape": {"dim": [{"size": "3"}, {"size": "3"}, {"size": "720"}, {"size": "1"}]}}}, "dtype": {"type": "DT_FLOAT"}}}, {"name": "module_apply_default/FeatureExtractor/MobilenetV2/expanded_conv_15/depthwise/BatchNorm_Fold/bias", "op": "Const", "attr": {"value": {"tensor": {"dtype": "DT_FLOAT", "tensorShape": {"dim": [{"size": "720"}]}}}, "dtype": {"type": "DT_FLOAT"}}}, {"name": "module_apply_default/FeatureExtractor/MobilenetV2/expanded_conv_15/depthwise/act_quant/min", "op": "Const", "attr": {"dtype": {"type": "DT_FLOAT"}, "value": {"tensor": {"dtype": "DT_FLOAT", "tensorShape": {}}}}}, {"name": "module_apply_default/FeatureExtractor/MobilenetV2/expanded_conv_15/depthwise/act_quant/max", "op": "Const", "attr": {"value": {"tensor": {"dtype": "DT_FLOAT", "tensorShape": {}}}, "dtype": {"type": "DT_FLOAT"}}}, {"name": "module_apply_default/FeatureExtractor/MobilenetV2/expanded_conv_15/project/weights_quant/FakeQuantWithMinMaxVars", "op": "Const", "attr": {"value": {"tensor": {"dtype": "DT_FLOAT", "tensorShape": {"dim": [{"size": "1"}, {"size": "1"}, {"size": "720"}, {"size": "120"}]}}}, "dtype": {"type": "DT_FLOAT"}}}, {"name": "module_apply_default/FeatureExtractor/MobilenetV2/expanded_conv_15/project/BatchNorm_Fold/bias", "op": "Const", "attr": {"value": {"tensor": {"dtype": "DT_FLOAT", "tensorShape": {"dim": [{"size": "120"}]}}}, "dtype": {"type": "DT_FLOAT"}}}, {"name": "module_apply_default/FeatureExtractor/MobilenetV2/expanded_conv_15/project/act_quant/min", "op": "Const", "attr": {"value": {"tensor": {"dtype": "DT_FLOAT", "tensorShape": {}}}, "dtype": {"type": "DT_FLOAT"}}}, {"name": "module_apply_default/FeatureExtractor/MobilenetV2/expanded_conv_15/project/act_quant/max", "op": "Const", "attr": {"value": {"tensor": {"dtype": "DT_FLOAT", "tensorShape": {}}}, "dtype": {"type": "DT_FLOAT"}}}, {"name": "module_apply_default/FeatureExtractor/MobilenetV2/expanded_conv_14/expand/weights_quant/FakeQuantWithMinMaxVars", "op": "Const", "attr": {"value": {"tensor": {"dtype": "DT_FLOAT", "tensorShape": {"dim": [{"size": "1"}, {"size": "1"}, {"size": "120"}, {"size": "720"}]}}}, "dtype": {"type": "DT_FLOAT"}}}, {"name": "module_apply_default/FeatureExtractor/MobilenetV2/expanded_conv_14/expand/BatchNorm_Fold/bias", "op": "Const", "attr": {"value": {"tensor": {"dtype": "DT_FLOAT", "tensorShape": {"dim": [{"size": "720"}]}}}, "dtype": {"type": "DT_FLOAT"}}}, {"name": "module_apply_default/FeatureExtractor/MobilenetV2/expanded_conv_14/expand/act_quant/min", "op": "Const", "attr": {"value": {"tensor": {"dtype": "DT_FLOAT", "tensorShape": {}}}, "dtype": {"type": "DT_FLOAT"}}}, {"name": "module_apply_default/FeatureExtractor/MobilenetV2/expanded_conv_14/expand/act_quant/max", "op": "Const", "attr": {"dtype": {"type": "DT_FLOAT"}, "value": {"tensor": {"dtype": "DT_FLOAT", "tensorShape": {}}}}}, {"name": "module_apply_default/FeatureExtractor/MobilenetV2/expanded_conv_14/depthwise/weights_quant/FakeQuantWithMinMaxVars", "op": "Const", "attr": {"value": {"tensor": {"dtype": "DT_FLOAT", "tensorShape": {"dim": [{"size": "3"}, {"size": "3"}, {"size": "720"}, {"size": "1"}]}}}, "dtype": {"type": "DT_FLOAT"}}}, {"name": "module_apply_default/FeatureExtractor/MobilenetV2/expanded_conv_14/depthwise/BatchNorm_Fold/bias", "op": "Const", "attr": {"value": {"tensor": {"dtype": "DT_FLOAT", "tensorShape": {"dim": [{"size": "720"}]}}}, "dtype": {"type": "DT_FLOAT"}}}, {"name": "module_apply_default/FeatureExtractor/MobilenetV2/expanded_conv_14/depthwise/act_quant/min", "op": "Const", "attr": {"value": {"tensor": {"dtype": "DT_FLOAT", "tensorShape": {}}}, "dtype": {"type": "DT_FLOAT"}}}, {"name": "module_apply_default/FeatureExtractor/MobilenetV2/expanded_conv_14/depthwise/act_quant/max", "op": "Const", "attr": {"value": {"tensor": {"dtype": "DT_FLOAT", "tensorShape": {}}}, "dtype": {"type": "DT_FLOAT"}}}, {"name": "module_apply_default/FeatureExtractor/MobilenetV2/expanded_conv_14/project/weights_quant/FakeQuantWithMinMaxVars", "op": "Const", "attr": {"value": {"tensor": {"dtype": "DT_FLOAT", "tensorShape": {"dim": [{"size": "1"}, {"size": "1"}, {"size": "720"}, {"size": "120"}]}}}, "dtype": {"type": "DT_FLOAT"}}}, {"name": "module_apply_default/FeatureExtractor/MobilenetV2/expanded_conv_14/project/BatchNorm_Fold/bias", "op": "Const", "attr": {"value": {"tensor": {"dtype": "DT_FLOAT", "tensorShape": {"dim": [{"size": "120"}]}}}, "dtype": {"type": "DT_FLOAT"}}}, {"name": "module_apply_default/FeatureExtractor/MobilenetV2/expanded_conv_14/project/act_quant/min", "op": "Const", "attr": {"value": {"tensor": {"dtype": "DT_FLOAT", "tensorShape": {}}}, "dtype": {"type": "DT_FLOAT"}}}, {"name": "module_apply_default/FeatureExtractor/MobilenetV2/expanded_conv_14/project/act_quant/max", "op": "Const", "attr": {"value": {"tensor": {"dtype": "DT_FLOAT", "tensorShape": {}}}, "dtype": {"type": "DT_FLOAT"}}}, {"name": "module_apply_default/FeatureExtractor/MobilenetV2/expanded_conv_12/expand/weights_quant/FakeQuantWithMinMaxVars", "op": "Const", "attr": {"value": {"tensor": {"dtype": "DT_FLOAT", "tensorShape": {"dim": [{"size": "1"}, {"size": "1"}, {"size": "72"}, {"size": "432"}]}}}, "dtype": {"type": "DT_FLOAT"}}}, {"name": "module_apply_default/FeatureExtractor/MobilenetV2/expanded_conv_12/expand/BatchNorm_Fold/bias", "op": "Const", "attr": {"value": {"tensor": {"dtype": "DT_FLOAT", "tensorShape": {"dim": [{"size": "432"}]}}}, "dtype": {"type": "DT_FLOAT"}}}, {"name": "module_apply_default/FeatureExtractor/MobilenetV2/expanded_conv_12/expand/act_quant/min", "op": "Const", "attr": {"value": {"tensor": {"dtype": "DT_FLOAT", "tensorShape": {}}}, "dtype": {"type": "DT_FLOAT"}}}, {"name": "module_apply_default/FeatureExtractor/MobilenetV2/expanded_conv_12/expand/act_quant/max", "op": "Const", "attr": {"value": {"tensor": {"dtype": "DT_FLOAT", "tensorShape": {}}}, "dtype": {"type": "DT_FLOAT"}}}, {"name": "module_apply_default/FeatureExtractor/MobilenetV2/expanded_conv_12/depthwise/weights_quant/FakeQuantWithMinMaxVars", "op": "Const", "attr": {"dtype": {"type": "DT_FLOAT"}, "value": {"tensor": {"dtype": "DT_FLOAT", "tensorShape": {"dim": [{"size": "3"}, {"size": "3"}, {"size": "432"}, {"size": "1"}]}}}}}, {"name": "module_apply_default/FeatureExtractor/MobilenetV2/expanded_conv_12/depthwise/BatchNorm_Fold/bias", "op": "Const", "attr": {"value": {"tensor": {"dtype": "DT_FLOAT", "tensorShape": {"dim": [{"size": "432"}]}}}, "dtype": {"type": "DT_FLOAT"}}}, {"name": "module_apply_default/FeatureExtractor/MobilenetV2/expanded_conv_12/depthwise/act_quant/min", "op": "Const", "attr": {"value": {"tensor": {"dtype": "DT_FLOAT", "tensorShape": {}}}, "dtype": {"type": "DT_FLOAT"}}}, {"name": "module_apply_default/FeatureExtractor/MobilenetV2/expanded_conv_12/depthwise/act_quant/max", "op": "Const", "attr": {"dtype": {"type": "DT_FLOAT"}, "value": {"tensor": {"dtype": "DT_FLOAT", "tensorShape": {}}}}}, {"name": "module_apply_default/FeatureExtractor/MobilenetV2/expanded_conv_12/project/weights_quant/FakeQuantWithMinMaxVars", "op": "Const", "attr": {"value": {"tensor": {"dtype": "DT_FLOAT", "tensorShape": {"dim": [{"size": "1"}, {"size": "1"}, {"size": "432"}, {"size": "72"}]}}}, "dtype": {"type": "DT_FLOAT"}}}, {"name": "module_apply_default/FeatureExtractor/MobilenetV2/expanded_conv_12/project/BatchNorm_Fold/bias", "op": "Const", "attr": {"dtype": {"type": "DT_FLOAT"}, "value": {"tensor": {"dtype": "DT_FLOAT", "tensorShape": {"dim": [{"size": "72"}]}}}}}, {"name": "module_apply_default/FeatureExtractor/MobilenetV2/expanded_conv_12/project/act_quant/min", "op": "Const", "attr": {"value": {"tensor": {"dtype": "DT_FLOAT", "tensorShape": {}}}, "dtype": {"type": "DT_FLOAT"}}}, {"name": "module_apply_default/FeatureExtractor/MobilenetV2/expanded_conv_12/project/act_quant/max", "op": "Const", "attr": {"dtype": {"type": "DT_FLOAT"}, "value": {"tensor": {"dtype": "DT_FLOAT", "tensorShape": {}}}}}, {"name": "module_apply_default/FeatureExtractor/MobilenetV2/expanded_conv_11/expand/weights_quant/FakeQuantWithMinMaxVars", "op": "Const", "attr": {"value": {"tensor": {"dtype": "DT_FLOAT", "tensorShape": {"dim": [{"size": "1"}, {"size": "1"}, {"size": "72"}, {"size": "432"}]}}}, "dtype": {"type": "DT_FLOAT"}}}, {"name": "module_apply_default/FeatureExtractor/MobilenetV2/expanded_conv_11/expand/BatchNorm_Fold/bias", "op": "Const", "attr": {"dtype": {"type": "DT_FLOAT"}, "value": {"tensor": {"dtype": "DT_FLOAT", "tensorShape": {"dim": [{"size": "432"}]}}}}}, {"name": "module_apply_default/FeatureExtractor/MobilenetV2/expanded_conv_11/expand/act_quant/min", "op": "Const", "attr": {"value": {"tensor": {"dtype": "DT_FLOAT", "tensorShape": {}}}, "dtype": {"type": "DT_FLOAT"}}}, {"name": "module_apply_default/FeatureExtractor/MobilenetV2/expanded_conv_11/expand/act_quant/max", "op": "Const", "attr": {"value": {"tensor": {"dtype": "DT_FLOAT", "tensorShape": {}}}, "dtype": {"type": "DT_FLOAT"}}}, {"name": "module_apply_default/FeatureExtractor/MobilenetV2/expanded_conv_11/depthwise/weights_quant/FakeQuantWithMinMaxVars", "op": "Const", "attr": {"value": {"tensor": {"dtype": "DT_FLOAT", "tensorShape": {"dim": [{"size": "3"}, {"size": "3"}, {"size": "432"}, {"size": "1"}]}}}, "dtype": {"type": "DT_FLOAT"}}}, {"name": "module_apply_default/FeatureExtractor/MobilenetV2/expanded_conv_11/depthwise/BatchNorm_Fold/bias", "op": "Const", "attr": {"value": {"tensor": {"dtype": "DT_FLOAT", "tensorShape": {"dim": [{"size": "432"}]}}}, "dtype": {"type": "DT_FLOAT"}}}, {"name": "module_apply_default/FeatureExtractor/MobilenetV2/expanded_conv_11/depthwise/act_quant/min", "op": "Const", "attr": {"value": {"tensor": {"dtype": "DT_FLOAT", "tensorShape": {}}}, "dtype": {"type": "DT_FLOAT"}}}, {"name": "module_apply_default/FeatureExtractor/MobilenetV2/expanded_conv_11/depthwise/act_quant/max", "op": "Const", "attr": {"value": {"tensor": {"dtype": "DT_FLOAT", "tensorShape": {}}}, "dtype": {"type": "DT_FLOAT"}}}, {"name": "module_apply_default/FeatureExtractor/MobilenetV2/expanded_conv_11/project/weights_quant/FakeQuantWithMinMaxVars", "op": "Const", "attr": {"dtype": {"type": "DT_FLOAT"}, "value": {"tensor": {"dtype": "DT_FLOAT", "tensorShape": {"dim": [{"size": "1"}, {"size": "1"}, {"size": "432"}, {"size": "72"}]}}}}}, {"name": "module_apply_default/FeatureExtractor/MobilenetV2/expanded_conv_11/project/BatchNorm_Fold/bias", "op": "Const", "attr": {"value": {"tensor": {"dtype": "DT_FLOAT", "tensorShape": {"dim": [{"size": "72"}]}}}, "dtype": {"type": "DT_FLOAT"}}}, {"name": "module_apply_default/FeatureExtractor/MobilenetV2/expanded_conv_11/project/act_quant/min", "op": "Const", "attr": {"value": {"tensor": {"dtype": "DT_FLOAT", "tensorShape": {}}}, "dtype": {"type": "DT_FLOAT"}}}, {"name": "module_apply_default/FeatureExtractor/MobilenetV2/expanded_conv_11/project/act_quant/max", "op": "Const", "attr": {"value": {"tensor": {"dtype": "DT_FLOAT", "tensorShape": {}}}, "dtype": {"type": "DT_FLOAT"}}}, {"name": "module_apply_default/FeatureExtractor/MobilenetV2/expanded_conv_9/expand/weights_quant/FakeQuantWithMinMaxVars", "op": "Const", "attr": {"dtype": {"type": "DT_FLOAT"}, "value": {"tensor": {"dtype": "DT_FLOAT", "tensorShape": {"dim": [{"size": "1"}, {"size": "1"}, {"size": "48"}, {"size": "288"}]}}}}}, {"name": "module_apply_default/FeatureExtractor/MobilenetV2/expanded_conv_9/expand/BatchNorm_Fold/bias", "op": "Const", "attr": {"dtype": {"type": "DT_FLOAT"}, "value": {"tensor": {"dtype": "DT_FLOAT", "tensorShape": {"dim": [{"size": "288"}]}}}}}, {"name": "module_apply_default/FeatureExtractor/MobilenetV2/expanded_conv_9/expand/act_quant/min", "op": "Const", "attr": {"value": {"tensor": {"dtype": "DT_FLOAT", "tensorShape": {}}}, "dtype": {"type": "DT_FLOAT"}}}, {"name": "module_apply_default/FeatureExtractor/MobilenetV2/expanded_conv_9/expand/act_quant/max", "op": "Const", "attr": {"dtype": {"type": "DT_FLOAT"}, "value": {"tensor": {"dtype": "DT_FLOAT", "tensorShape": {}}}}}, {"name": "module_apply_default/FeatureExtractor/MobilenetV2/expanded_conv_9/depthwise/weights_quant/FakeQuantWithMinMaxVars", "op": "Const", "attr": {"dtype": {"type": "DT_FLOAT"}, "value": {"tensor": {"dtype": "DT_FLOAT", "tensorShape": {"dim": [{"size": "3"}, {"size": "3"}, {"size": "288"}, {"size": "1"}]}}}}}, {"name": "module_apply_default/FeatureExtractor/MobilenetV2/expanded_conv_9/depthwise/BatchNorm_Fold/bias", "op": "Const", "attr": {"value": {"tensor": {"dtype": "DT_FLOAT", "tensorShape": {"dim": [{"size": "288"}]}}}, "dtype": {"type": "DT_FLOAT"}}}, {"name": "module_apply_default/FeatureExtractor/MobilenetV2/expanded_conv_9/depthwise/act_quant/min", "op": "Const", "attr": {"dtype": {"type": "DT_FLOAT"}, "value": {"tensor": {"dtype": "DT_FLOAT", "tensorShape": {}}}}}, {"name": "module_apply_default/FeatureExtractor/MobilenetV2/expanded_conv_9/depthwise/act_quant/max", "op": "Const", "attr": {"dtype": {"type": "DT_FLOAT"}, "value": {"tensor": {"dtype": "DT_FLOAT", "tensorShape": {}}}}}, {"name": "module_apply_default/FeatureExtractor/MobilenetV2/expanded_conv_9/project/weights_quant/FakeQuantWithMinMaxVars", "op": "Const", "attr": {"dtype": {"type": "DT_FLOAT"}, "value": {"tensor": {"dtype": "DT_FLOAT", "tensorShape": {"dim": [{"size": "1"}, {"size": "1"}, {"size": "288"}, {"size": "48"}]}}}}}, {"name": "module_apply_default/FeatureExtractor/MobilenetV2/expanded_conv_9/project/BatchNorm_Fold/bias", "op": "Const", "attr": {"dtype": {"type": "DT_FLOAT"}, "value": {"tensor": {"dtype": "DT_FLOAT", "tensorShape": {"dim": [{"size": "48"}]}}}}}, {"name": "module_apply_default/FeatureExtractor/MobilenetV2/expanded_conv_9/project/act_quant/min", "op": "Const", "attr": {"value": {"tensor": {"dtype": "DT_FLOAT", "tensorShape": {}}}, "dtype": {"type": "DT_FLOAT"}}}, {"name": "module_apply_default/FeatureExtractor/MobilenetV2/expanded_conv_9/project/act_quant/max", "op": "Const", "attr": {"dtype": {"type": "DT_FLOAT"}, "value": {"tensor": {"dtype": "DT_FLOAT", "tensorShape": {}}}}}, {"name": "module_apply_default/FeatureExtractor/MobilenetV2/expanded_conv_8/expand/weights_quant/FakeQuantWithMinMaxVars", "op": "Const", "attr": {"dtype": {"type": "DT_FLOAT"}, "value": {"tensor": {"dtype": "DT_FLOAT", "tensorShape": {"dim": [{"size": "1"}, {"size": "1"}, {"size": "48"}, {"size": "288"}]}}}}}, {"name": "module_apply_default/FeatureExtractor/MobilenetV2/expanded_conv_8/expand/BatchNorm_Fold/bias", "op": "Const", "attr": {"dtype": {"type": "DT_FLOAT"}, "value": {"tensor": {"dtype": "DT_FLOAT", "tensorShape": {"dim": [{"size": "288"}]}}}}}, {"name": "module_apply_default/FeatureExtractor/MobilenetV2/expanded_conv_8/expand/act_quant/min", "op": "Const", "attr": {"value": {"tensor": {"dtype": "DT_FLOAT", "tensorShape": {}}}, "dtype": {"type": "DT_FLOAT"}}}, {"name": "module_apply_default/FeatureExtractor/MobilenetV2/expanded_conv_8/expand/act_quant/max", "op": "Const", "attr": {"dtype": {"type": "DT_FLOAT"}, "value": {"tensor": {"dtype": "DT_FLOAT", "tensorShape": {}}}}}, {"name": "module_apply_default/FeatureExtractor/MobilenetV2/expanded_conv_8/depthwise/weights_quant/FakeQuantWithMinMaxVars", "op": "Const", "attr": {"value": {"tensor": {"dtype": "DT_FLOAT", "tensorShape": {"dim": [{"size": "3"}, {"size": "3"}, {"size": "288"}, {"size": "1"}]}}}, "dtype": {"type": "DT_FLOAT"}}}, {"name": "module_apply_default/FeatureExtractor/MobilenetV2/expanded_conv_8/depthwise/BatchNorm_Fold/bias", "op": "Const", "attr": {"dtype": {"type": "DT_FLOAT"}, "value": {"tensor": {"dtype": "DT_FLOAT", "tensorShape": {"dim": [{"size": "288"}]}}}}}, {"name": "module_apply_default/FeatureExtractor/MobilenetV2/expanded_conv_8/depthwise/act_quant/min", "op": "Const", "attr": {"dtype": {"type": "DT_FLOAT"}, "value": {"tensor": {"dtype": "DT_FLOAT", "tensorShape": {}}}}}, {"name": "module_apply_default/FeatureExtractor/MobilenetV2/expanded_conv_8/depthwise/act_quant/max", "op": "Const", "attr": {"dtype": {"type": "DT_FLOAT"}, "value": {"tensor": {"dtype": "DT_FLOAT", "tensorShape": {}}}}}, {"name": "module_apply_default/FeatureExtractor/MobilenetV2/expanded_conv_8/project/weights_quant/FakeQuantWithMinMaxVars", "op": "Const", "attr": {"dtype": {"type": "DT_FLOAT"}, "value": {"tensor": {"dtype": "DT_FLOAT", "tensorShape": {"dim": [{"size": "1"}, {"size": "1"}, {"size": "288"}, {"size": "48"}]}}}}}, {"name": "module_apply_default/FeatureExtractor/MobilenetV2/expanded_conv_8/project/BatchNorm_Fold/bias", "op": "Const", "attr": {"dtype": {"type": "DT_FLOAT"}, "value": {"tensor": {"dtype": "DT_FLOAT", "tensorShape": {"dim": [{"size": "48"}]}}}}}, {"name": "module_apply_default/FeatureExtractor/MobilenetV2/expanded_conv_8/project/act_quant/min", "op": "Const", "attr": {"dtype": {"type": "DT_FLOAT"}, "value": {"tensor": {"dtype": "DT_FLOAT", "tensorShape": {}}}}}, {"name": "module_apply_default/FeatureExtractor/MobilenetV2/expanded_conv_8/project/act_quant/max", "op": "Const", "attr": {"value": {"tensor": {"dtype": "DT_FLOAT", "tensorShape": {}}}, "dtype": {"type": "DT_FLOAT"}}}, {"name": "module_apply_default/FeatureExtractor/MobilenetV2/expanded_conv_7/expand/weights_quant/FakeQuantWithMinMaxVars", "op": "Const", "attr": {"value": {"tensor": {"dtype": "DT_FLOAT", "tensorShape": {"dim": [{"size": "1"}, {"size": "1"}, {"size": "48"}, {"size": "288"}]}}}, "dtype": {"type": "DT_FLOAT"}}}, {"name": "module_apply_default/FeatureExtractor/MobilenetV2/expanded_conv_7/expand/BatchNorm_Fold/bias", "op": "Const", "attr": {"value": {"tensor": {"dtype": "DT_FLOAT", "tensorShape": {"dim": [{"size": "288"}]}}}, "dtype": {"type": "DT_FLOAT"}}}, {"name": "module_apply_default/FeatureExtractor/MobilenetV2/expanded_conv_7/expand/act_quant/min", "op": "Const", "attr": {"dtype": {"type": "DT_FLOAT"}, "value": {"tensor": {"dtype": "DT_FLOAT", "tensorShape": {}}}}}, {"name": "module_apply_default/FeatureExtractor/MobilenetV2/expanded_conv_7/expand/act_quant/max", "op": "Const", "attr": {"value": {"tensor": {"dtype": "DT_FLOAT", "tensorShape": {}}}, "dtype": {"type": "DT_FLOAT"}}}, {"name": "module_apply_default/FeatureExtractor/MobilenetV2/expanded_conv_7/depthwise/weights_quant/FakeQuantWithMinMaxVars", "op": "Const", "attr": {"dtype": {"type": "DT_FLOAT"}, "value": {"tensor": {"dtype": "DT_FLOAT", "tensorShape": {"dim": [{"size": "3"}, {"size": "3"}, {"size": "288"}, {"size": "1"}]}}}}}, {"name": "module_apply_default/FeatureExtractor/MobilenetV2/expanded_conv_7/depthwise/BatchNorm_Fold/bias", "op": "Const", "attr": {"dtype": {"type": "DT_FLOAT"}, "value": {"tensor": {"dtype": "DT_FLOAT", "tensorShape": {"dim": [{"size": "288"}]}}}}}, {"name": "module_apply_default/FeatureExtractor/MobilenetV2/expanded_conv_7/depthwise/act_quant/min", "op": "Const", "attr": {"dtype": {"type": "DT_FLOAT"}, "value": {"tensor": {"dtype": "DT_FLOAT", "tensorShape": {}}}}}, {"name": "module_apply_default/FeatureExtractor/MobilenetV2/expanded_conv_7/depthwise/act_quant/max", "op": "Const", "attr": {"dtype": {"type": "DT_FLOAT"}, "value": {"tensor": {"dtype": "DT_FLOAT", "tensorShape": {}}}}}, {"name": "module_apply_default/FeatureExtractor/MobilenetV2/expanded_conv_7/project/weights_quant/FakeQuantWithMinMaxVars", "op": "Const", "attr": {"dtype": {"type": "DT_FLOAT"}, "value": {"tensor": {"dtype": "DT_FLOAT", "tensorShape": {"dim": [{"size": "1"}, {"size": "1"}, {"size": "288"}, {"size": "48"}]}}}}}, {"name": "module_apply_default/FeatureExtractor/MobilenetV2/expanded_conv_7/project/BatchNorm_Fold/bias", "op": "Const", "attr": {"dtype": {"type": "DT_FLOAT"}, "value": {"tensor": {"dtype": "DT_FLOAT", "tensorShape": {"dim": [{"size": "48"}]}}}}}, {"name": "module_apply_default/FeatureExtractor/MobilenetV2/expanded_conv_7/project/act_quant/min", "op": "Const", "attr": {"dtype": {"type": "DT_FLOAT"}, "value": {"tensor": {"dtype": "DT_FLOAT", "tensorShape": {}}}}}, {"name": "module_apply_default/FeatureExtractor/MobilenetV2/expanded_conv_7/project/act_quant/max", "op": "Const", "attr": {"dtype": {"type": "DT_FLOAT"}, "value": {"tensor": {"dtype": "DT_FLOAT", "tensorShape": {}}}}}, {"name": "module_apply_default/FeatureExtractor/MobilenetV2/expanded_conv_5/expand/weights_quant/FakeQuantWithMinMaxVars", "op": "Const", "attr": {"dtype": {"type": "DT_FLOAT"}, "value": {"tensor": {"dtype": "DT_FLOAT", "tensorShape": {"dim": [{"size": "1"}, {"size": "1"}, {"size": "24"}, {"size": "144"}]}}}}}, {"name": "module_apply_default/FeatureExtractor/MobilenetV2/expanded_conv_5/expand/BatchNorm_Fold/bias", "op": "Const", "attr": {"dtype": {"type": "DT_FLOAT"}, "value": {"tensor": {"dtype": "DT_FLOAT", "tensorShape": {"dim": [{"size": "144"}]}}}}}, {"name": "module_apply_default/FeatureExtractor/MobilenetV2/expanded_conv_5/expand/act_quant/min", "op": "Const", "attr": {"value": {"tensor": {"dtype": "DT_FLOAT", "tensorShape": {}}}, "dtype": {"type": "DT_FLOAT"}}}, {"name": "module_apply_default/FeatureExtractor/MobilenetV2/expanded_conv_5/expand/act_quant/max", "op": "Const", "attr": {"value": {"tensor": {"dtype": "DT_FLOAT", "tensorShape": {}}}, "dtype": {"type": "DT_FLOAT"}}}, {"name": "module_apply_default/FeatureExtractor/MobilenetV2/expanded_conv_5/depthwise/weights_quant/FakeQuantWithMinMaxVars", "op": "Const", "attr": {"dtype": {"type": "DT_FLOAT"}, "value": {"tensor": {"dtype": "DT_FLOAT", "tensorShape": {"dim": [{"size": "3"}, {"size": "3"}, {"size": "144"}, {"size": "1"}]}}}}}, {"name": "module_apply_default/FeatureExtractor/MobilenetV2/expanded_conv_5/depthwise/BatchNorm_Fold/bias", "op": "Const", "attr": {"dtype": {"type": "DT_FLOAT"}, "value": {"tensor": {"dtype": "DT_FLOAT", "tensorShape": {"dim": [{"size": "144"}]}}}}}, {"name": "module_apply_default/FeatureExtractor/MobilenetV2/expanded_conv_5/depthwise/act_quant/min", "op": "Const", "attr": {"dtype": {"type": "DT_FLOAT"}, "value": {"tensor": {"dtype": "DT_FLOAT", "tensorShape": {}}}}}, {"name": "module_apply_default/FeatureExtractor/MobilenetV2/expanded_conv_5/depthwise/act_quant/max", "op": "Const", "attr": {"dtype": {"type": "DT_FLOAT"}, "value": {"tensor": {"dtype": "DT_FLOAT", "tensorShape": {}}}}}, {"name": "module_apply_default/FeatureExtractor/MobilenetV2/expanded_conv_5/project/weights_quant/FakeQuantWithMinMaxVars", "op": "Const", "attr": {"dtype": {"type": "DT_FLOAT"}, "value": {"tensor": {"dtype": "DT_FLOAT", "tensorShape": {"dim": [{"size": "1"}, {"size": "1"}, {"size": "144"}, {"size": "24"}]}}}}}, {"name": "module_apply_default/FeatureExtractor/MobilenetV2/expanded_conv_5/project/BatchNorm_Fold/bias", "op": "Const", "attr": {"dtype": {"type": "DT_FLOAT"}, "value": {"tensor": {"dtype": "DT_FLOAT", "tensorShape": {"dim": [{"size": "24"}]}}}}}, {"name": "module_apply_default/FeatureExtractor/MobilenetV2/expanded_conv_5/project/act_quant/min", "op": "Const", "attr": {"dtype": {"type": "DT_FLOAT"}, "value": {"tensor": {"dtype": "DT_FLOAT", "tensorShape": {}}}}}, {"name": "module_apply_default/FeatureExtractor/MobilenetV2/expanded_conv_5/project/act_quant/max", "op": "Const", "attr": {"dtype": {"type": "DT_FLOAT"}, "value": {"tensor": {"dtype": "DT_FLOAT", "tensorShape": {}}}}}, {"name": "module_apply_default/FeatureExtractor/MobilenetV2/expanded_conv_4/expand/weights_quant/FakeQuantWithMinMaxVars", "op": "Const", "attr": {"dtype": {"type": "DT_FLOAT"}, "value": {"tensor": {"dtype": "DT_FLOAT", "tensorShape": {"dim": [{"size": "1"}, {"size": "1"}, {"size": "24"}, {"size": "144"}]}}}}}, {"name": "module_apply_default/FeatureExtractor/MobilenetV2/expanded_conv_4/expand/BatchNorm_Fold/bias", "op": "Const", "attr": {"dtype": {"type": "DT_FLOAT"}, "value": {"tensor": {"dtype": "DT_FLOAT", "tensorShape": {"dim": [{"size": "144"}]}}}}}, {"name": "module_apply_default/FeatureExtractor/MobilenetV2/expanded_conv_4/expand/act_quant/min", "op": "Const", "attr": {"value": {"tensor": {"dtype": "DT_FLOAT", "tensorShape": {}}}, "dtype": {"type": "DT_FLOAT"}}}, {"name": "module_apply_default/FeatureExtractor/MobilenetV2/expanded_conv_4/expand/act_quant/max", "op": "Const", "attr": {"dtype": {"type": "DT_FLOAT"}, "value": {"tensor": {"dtype": "DT_FLOAT", "tensorShape": {}}}}}, {"name": "module_apply_default/FeatureExtractor/MobilenetV2/expanded_conv_4/depthwise/weights_quant/FakeQuantWithMinMaxVars", "op": "Const", "attr": {"dtype": {"type": "DT_FLOAT"}, "value": {"tensor": {"dtype": "DT_FLOAT", "tensorShape": {"dim": [{"size": "3"}, {"size": "3"}, {"size": "144"}, {"size": "1"}]}}}}}, {"name": "module_apply_default/FeatureExtractor/MobilenetV2/expanded_conv_4/depthwise/BatchNorm_Fold/bias", "op": "Const", "attr": {"value": {"tensor": {"dtype": "DT_FLOAT", "tensorShape": {"dim": [{"size": "144"}]}}}, "dtype": {"type": "DT_FLOAT"}}}, {"name": "module_apply_default/FeatureExtractor/MobilenetV2/expanded_conv_4/depthwise/act_quant/min", "op": "Const", "attr": {"value": {"tensor": {"dtype": "DT_FLOAT", "tensorShape": {}}}, "dtype": {"type": "DT_FLOAT"}}}, {"name": "module_apply_default/FeatureExtractor/MobilenetV2/expanded_conv_4/depthwise/act_quant/max", "op": "Const", "attr": {"value": {"tensor": {"dtype": "DT_FLOAT", "tensorShape": {}}}, "dtype": {"type": "DT_FLOAT"}}}, {"name": "module_apply_default/FeatureExtractor/MobilenetV2/expanded_conv_4/project/weights_quant/FakeQuantWithMinMaxVars", "op": "Const", "attr": {"value": {"tensor": {"dtype": "DT_FLOAT", "tensorShape": {"dim": [{"size": "1"}, {"size": "1"}, {"size": "144"}, {"size": "24"}]}}}, "dtype": {"type": "DT_FLOAT"}}}, {"name": "module_apply_default/FeatureExtractor/MobilenetV2/expanded_conv_4/project/BatchNorm_Fold/bias", "op": "Const", "attr": {"value": {"tensor": {"dtype": "DT_FLOAT", "tensorShape": {"dim": [{"size": "24"}]}}}, "dtype": {"type": "DT_FLOAT"}}}, {"name": "module_apply_default/FeatureExtractor/MobilenetV2/expanded_conv_4/project/act_quant/min", "op": "Const", "attr": {"dtype": {"type": "DT_FLOAT"}, "value": {"tensor": {"dtype": "DT_FLOAT", "tensorShape": {}}}}}, {"name": "module_apply_default/FeatureExtractor/MobilenetV2/expanded_conv_4/project/act_quant/max", "op": "Const", "attr": {"value": {"tensor": {"dtype": "DT_FLOAT", "tensorShape": {}}}, "dtype": {"type": "DT_FLOAT"}}}, {"name": "module_apply_default/FeatureExtractor/MobilenetV2/expanded_conv_2/expand/weights_quant/FakeQuantWithMinMaxVars", "op": "Const", "attr": {"dtype": {"type": "DT_FLOAT"}, "value": {"tensor": {"dtype": "DT_FLOAT", "tensorShape": {"dim": [{"size": "1"}, {"size": "1"}, {"size": "24"}, {"size": "144"}]}}}}}, {"name": "module_apply_default/FeatureExtractor/MobilenetV2/expanded_conv_2/expand/BatchNorm_Fold/bias", "op": "Const", "attr": {"dtype": {"type": "DT_FLOAT"}, "value": {"tensor": {"dtype": "DT_FLOAT", "tensorShape": {"dim": [{"size": "144"}]}}}}}, {"name": "module_apply_default/FeatureExtractor/MobilenetV2/expanded_conv_2/expand/act_quant/min", "op": "Const", "attr": {"value": {"tensor": {"dtype": "DT_FLOAT", "tensorShape": {}}}, "dtype": {"type": "DT_FLOAT"}}}, {"name": "module_apply_default/FeatureExtractor/MobilenetV2/expanded_conv_2/expand/act_quant/max", "op": "Const", "attr": {"value": {"tensor": {"dtype": "DT_FLOAT", "tensorShape": {}}}, "dtype": {"type": "DT_FLOAT"}}}, {"name": "module_apply_default/FeatureExtractor/MobilenetV2/expanded_conv_2/depthwise/weights_quant/FakeQuantWithMinMaxVars", "op": "Const", "attr": {"value": {"tensor": {"dtype": "DT_FLOAT", "tensorShape": {"dim": [{"size": "3"}, {"size": "3"}, {"size": "144"}, {"size": "1"}]}}}, "dtype": {"type": "DT_FLOAT"}}}, {"name": "module_apply_default/FeatureExtractor/MobilenetV2/expanded_conv_2/depthwise/BatchNorm_Fold/bias", "op": "Const", "attr": {"dtype": {"type": "DT_FLOAT"}, "value": {"tensor": {"dtype": "DT_FLOAT", "tensorShape": {"dim": [{"size": "144"}]}}}}}, {"name": "module_apply_default/FeatureExtractor/MobilenetV2/expanded_conv_2/depthwise/act_quant/min", "op": "Const", "attr": {"value": {"tensor": {"dtype": "DT_FLOAT", "tensorShape": {}}}, "dtype": {"type": "DT_FLOAT"}}}, {"name": "module_apply_default/FeatureExtractor/MobilenetV2/expanded_conv_2/depthwise/act_quant/max", "op": "Const", "attr": {"value": {"tensor": {"dtype": "DT_FLOAT", "tensorShape": {}}}, "dtype": {"type": "DT_FLOAT"}}}, {"name": "module_apply_default/FeatureExtractor/MobilenetV2/expanded_conv_2/project/weights_quant/FakeQuantWithMinMaxVars", "op": "Const", "attr": {"value": {"tensor": {"dtype": "DT_FLOAT", "tensorShape": {"dim": [{"size": "1"}, {"size": "1"}, {"size": "144"}, {"size": "24"}]}}}, "dtype": {"type": "DT_FLOAT"}}}, {"name": "module_apply_default/FeatureExtractor/MobilenetV2/expanded_conv_2/project/BatchNorm_Fold/bias", "op": "Const", "attr": {"value": {"tensor": {"dtype": "DT_FLOAT", "tensorShape": {"dim": [{"size": "24"}]}}}, "dtype": {"type": "DT_FLOAT"}}}, {"name": "module_apply_default/FeatureExtractor/MobilenetV2/expanded_conv_2/project/act_quant/min", "op": "Const", "attr": {"value": {"tensor": {"dtype": "DT_FLOAT", "tensorShape": {}}}, "dtype": {"type": "DT_FLOAT"}}}, {"name": "module_apply_default/FeatureExtractor/MobilenetV2/expanded_conv_2/project/act_quant/max", "op": "Const", "attr": {"value": {"tensor": {"dtype": "DT_FLOAT", "tensorShape": {}}}, "dtype": {"type": "DT_FLOAT"}}}, {"name": "module_apply_default/Preprocessor/mul/x", "op": "Const", "attr": {"value": {"tensor": {"dtype": "DT_FLOAT", "tensorShape": {}}}, "dtype": {"type": "DT_FLOAT"}}}, {"name": "module_apply_default/Preprocessor/map/TensorArrayStack/range/start", "op": "Const", "attr": {"value": {"tensor": {"dtype": "DT_INT32", "tensorShape": {}}}, "dtype": {"type": "DT_INT32"}}}, {"name": "module_apply_default/Preprocessor/map/TensorArrayStack/range/delta", "op": "Const", "attr": {"value": {"tensor": {"dtype": "DT_INT32", "tensorShape": {}}}, "dtype": {"type": "DT_INT32"}}}, {"name": "module_apply_default/Preprocessor/map/TensorArrayUnstack/range/start", "op": "Const", "attr": {"dtype": {"type": "DT_INT32"}, "value": {"tensor": {"dtype": "DT_INT32", "tensorShape": {}}}}}, {"name": "module_apply_default/Preprocessor/map/TensorArrayUnstack/strided_slice/stack", "op": "Const", "attr": {"value": {"tensor": {"dtype": "DT_INT32", "tensorShape": {"dim": [{"size": "1"}]}}}, "dtype": {"type": "DT_INT32"}}}, {"name": "module_apply_default/Preprocessor/map/TensorArrayUnstack/strided_slice/stack_1", "op": "Const", "attr": {"value": {"tensor": {"dtype": "DT_INT32", "tensorShape": {"dim": [{"size": "1"}]}}}, "dtype": {"type": "DT_INT32"}}}, {"name": "module_apply_default/Preprocessor/map/TensorArrayUnstack/strided_slice/stack_2", "op": "Const", "attr": {"value": {"tensor": {"dtype": "DT_INT32", "tensorShape": {"dim": [{"size": "1"}]}}}, "dtype": {"type": "DT_INT32"}}}, {"name": "module_apply_default/Preprocessor/map/TensorArrayUnstack/range/delta", "op": "Const", "attr": {"value": {"tensor": {"dtype": "DT_INT32", "tensorShape": {}}}, "dtype": {"type": "DT_INT32"}}}, {"name": "module_apply_default/Preprocessor/map/Const", "op": "Const", "attr": {"dtype": {"type": "DT_INT32"}, "value": {"tensor": {"dtype": "DT_INT32", "tensorShape": {}}}}}, {"name": "module_apply_default/Preprocessor/map/while/iteration_counter", "op": "Const", "attr": {"value": {"tensor": {"dtype": "DT_INT32", "tensorShape": {}}}, "dtype": {"type": "DT_INT32"}}}, {"name": "images", "op": "Placeholder", "attr": {"dtype": {"type": "DT_FLOAT"}, "shape": {"shape": {"dim": [{"size": "-1"}, {"size": "192"}, {"size": "192"}, {"size": "3"}]}}}}, {"name": "module_apply_default/hub_input/Mul/y", "op": "Const", "attr": {"value": {"tensor": {"dtype": "DT_FLOAT", "tensorShape": {}}}, "dtype": {"type": "DT_FLOAT"}}}, {"name": "module_apply_default/Preprocessor/map/strided_slice/stack", "op": "Const", "attr": {"value": {"tensor": {"dtype": "DT_INT32", "tensorShape": {"dim": [{"size": "1"}]}}}, "dtype": {"type": "DT_INT32"}}}, {"name": "module_apply_default/Preprocessor/map/strided_slice/stack_1", "op": "Const", "attr": {"value": {"tensor": {"dtype": "DT_INT32", "tensorShape": {"dim": [{"size": "1"}]}}}, "dtype": {"type": "DT_INT32"}}}, {"name": "module_apply_default/Preprocessor/map/strided_slice/stack_2", "op": "Const", "attr": {"value": {"tensor": {"dtype": "DT_INT32", "tensorShape": {"dim": [{"size": "1"}]}}}, "dtype": {"type": "DT_INT32"}}}, {"name": "module_apply_default/Preprocessor/sub/y", "op": "Const", "attr": {"value": {"tensor": {"dtype": "DT_FLOAT", "tensorShape": {}}}, "dtype": {"type": "DT_FLOAT"}}}, {"name": "module_apply_default/FeatureExtractor/MobilenetV2/Conv/weights_quant/FakeQuantWithMinMaxVars", "op": "Const", "attr": {"dtype": {"type": "DT_FLOAT"}, "value": {"tensor": {"dtype": "DT_FLOAT", "tensorShape": {"dim": [{"size": "3"}, {"size": "3"}, {"size": "3"}, {"size": "24"}]}}}}}, {"name": "module_apply_default/FeatureExtractor/MobilenetV2/Conv/BatchNorm_Fold/bias", "op": "Const", "attr": {"value": {"tensor": {"dtype": "DT_FLOAT", "tensorShape": {"dim": [{"size": "24"}]}}}, "dtype": {"type": "DT_FLOAT"}}}, {"name": "module_apply_default/FeatureExtractor/MobilenetV2/Conv/act_quant/min", "op": "Const", "attr": {"value": {"tensor": {"dtype": "DT_FLOAT", "tensorShape": {}}}, "dtype": {"type": "DT_FLOAT"}}}, {"name": "module_apply_default/FeatureExtractor/MobilenetV2/Conv/act_quant/max", "op": "Const", "attr": {"value": {"tensor": {"dtype": "DT_FLOAT", "tensorShape": {}}}, "dtype": {"type": "DT_FLOAT"}}}, {"name": "module_apply_default/FeatureExtractor/MobilenetV2/expanded_conv/depthwise/weights_quant/FakeQuantWithMinMaxVars", "op": "Const", "attr": {"dtype": {"type": "DT_FLOAT"}, "value": {"tensor": {"dtype": "DT_FLOAT", "tensorShape": {"dim": [{"size": "3"}, {"size": "3"}, {"size": "24"}, {"size": "1"}]}}}}}, {"name": "module_apply_default/FeatureExtractor/MobilenetV2/expanded_conv/depthwise/BatchNorm_Fold/bias", "op": "Const", "attr": {"dtype": {"type": "DT_FLOAT"}, "value": {"tensor": {"dtype": "DT_FLOAT", "tensorShape": {"dim": [{"size": "24"}]}}}}}, {"name": "module_apply_default/FeatureExtractor/MobilenetV2/expanded_conv/depthwise/act_quant/min", "op": "Const", "attr": {"value": {"tensor": {"dtype": "DT_FLOAT", "tensorShape": {}}}, "dtype": {"type": "DT_FLOAT"}}}, {"name": "module_apply_default/FeatureExtractor/MobilenetV2/expanded_conv/depthwise/act_quant/max", "op": "Const", "attr": {"dtype": {"type": "DT_FLOAT"}, "value": {"tensor": {"dtype": "DT_FLOAT", "tensorShape": {}}}}}, {"name": "module_apply_default/FeatureExtractor/MobilenetV2/expanded_conv/project/weights_quant/FakeQuantWithMinMaxVars", "op": "Const", "attr": {"value": {"tensor": {"dtype": "DT_FLOAT", "tensorShape": {"dim": [{"size": "1"}, {"size": "1"}, {"size": "24"}, {"size": "16"}]}}}, "dtype": {"type": "DT_FLOAT"}}}, {"name": "module_apply_default/FeatureExtractor/MobilenetV2/expanded_conv/project/BatchNorm_Fold/bias", "op": "Const", "attr": {"value": {"tensor": {"dtype": "DT_FLOAT", "tensorShape": {"dim": [{"size": "16"}]}}}, "dtype": {"type": "DT_FLOAT"}}}, {"name": "module_apply_default/FeatureExtractor/MobilenetV2/expanded_conv/project/act_quant/min", "op": "Const", "attr": {"value": {"tensor": {"dtype": "DT_FLOAT", "tensorShape": {}}}, "dtype": {"type": "DT_FLOAT"}}}, {"name": "module_apply_default/FeatureExtractor/MobilenetV2/expanded_conv/project/act_quant/max", "op": "Const", "attr": {"value": {"tensor": {"dtype": "DT_FLOAT", "tensorShape": {}}}, "dtype": {"type": "DT_FLOAT"}}}, {"name": "module_apply_default/FeatureExtractor/MobilenetV2/expanded_conv_1/expand/weights_quant/FakeQuantWithMinMaxVars", "op": "Const", "attr": {"value": {"tensor": {"dtype": "DT_FLOAT", "tensorShape": {"dim": [{"size": "1"}, {"size": "1"}, {"size": "16"}, {"size": "96"}]}}}, "dtype": {"type": "DT_FLOAT"}}}, {"name": "module_apply_default/FeatureExtractor/MobilenetV2/expanded_conv_1/expand/BatchNorm_Fold/bias", "op": "Const", "attr": {"value": {"tensor": {"dtype": "DT_FLOAT", "tensorShape": {"dim": [{"size": "96"}]}}}, "dtype": {"type": "DT_FLOAT"}}}, {"name": "module_apply_default/FeatureExtractor/MobilenetV2/expanded_conv_1/expand/act_quant/min", "op": "Const", "attr": {"dtype": {"type": "DT_FLOAT"}, "value": {"tensor": {"dtype": "DT_FLOAT", "tensorShape": {}}}}}, {"name": "module_apply_default/FeatureExtractor/MobilenetV2/expanded_conv_1/expand/act_quant/max", "op": "Const", "attr": {"dtype": {"type": "DT_FLOAT"}, "value": {"tensor": {"dtype": "DT_FLOAT", "tensorShape": {}}}}}, {"name": "module_apply_default/FeatureExtractor/MobilenetV2/expanded_conv_1/depthwise/weights_quant/FakeQuantWithMinMaxVars", "op": "Const", "attr": {"value": {"tensor": {"dtype": "DT_FLOAT", "tensorShape": {"dim": [{"size": "3"}, {"size": "3"}, {"size": "96"}, {"size": "1"}]}}}, "dtype": {"type": "DT_FLOAT"}}}, {"name": "module_apply_default/FeatureExtractor/MobilenetV2/expanded_conv_1/depthwise/BatchNorm_Fold/bias", "op": "Const", "attr": {"value": {"tensor": {"dtype": "DT_FLOAT", "tensorShape": {"dim": [{"size": "96"}]}}}, "dtype": {"type": "DT_FLOAT"}}}, {"name": "module_apply_default/FeatureExtractor/MobilenetV2/expanded_conv_1/depthwise/act_quant/min", "op": "Const", "attr": {"value": {"tensor": {"dtype": "DT_FLOAT", "tensorShape": {}}}, "dtype": {"type": "DT_FLOAT"}}}, {"name": "module_apply_default/FeatureExtractor/MobilenetV2/expanded_conv_1/depthwise/act_quant/max", "op": "Const", "attr": {"dtype": {"type": "DT_FLOAT"}, "value": {"tensor": {"dtype": "DT_FLOAT", "tensorShape": {}}}}}, {"name": "module_apply_default/FeatureExtractor/MobilenetV2/expanded_conv_1/project/weights_quant/FakeQuantWithMinMaxVars", "op": "Const", "attr": {"value": {"tensor": {"dtype": "DT_FLOAT", "tensorShape": {"dim": [{"size": "1"}, {"size": "1"}, {"size": "96"}, {"size": "24"}]}}}, "dtype": {"type": "DT_FLOAT"}}}, {"name": "module_apply_default/FeatureExtractor/MobilenetV2/expanded_conv_1/project/BatchNorm_Fold/bias", "op": "Const", "attr": {"value": {"tensor": {"dtype": "DT_FLOAT", "tensorShape": {"dim": [{"size": "24"}]}}}, "dtype": {"type": "DT_FLOAT"}}}, {"name": "module_apply_default/FeatureExtractor/MobilenetV2/expanded_conv_1/project/act_quant/min", "op": "Const", "attr": {"value": {"tensor": {"dtype": "DT_FLOAT", "tensorShape": {}}}, "dtype": {"type": "DT_FLOAT"}}}, {"name": "module_apply_default/FeatureExtractor/MobilenetV2/expanded_conv_1/project/act_quant/max", "op": "Const", "attr": {"value": {"tensor": {"dtype": "DT_FLOAT", "tensorShape": {}}}, "dtype": {"type": "DT_FLOAT"}}}, {"name": "module_apply_default/FeatureExtractor/MobilenetV2/expanded_conv_2/post_activation_bypass_quant/min", "op": "Const", "attr": {"dtype": {"type": "DT_FLOAT"}, "value": {"tensor": {"dtype": "DT_FLOAT", "tensorShape": {}}}}}, {"name": "module_apply_default/FeatureExtractor/MobilenetV2/expanded_conv_2/post_activation_bypass_quant/max", "op": "Const", "attr": {"dtype": {"type": "DT_FLOAT"}, "value": {"tensor": {"dtype": "DT_FLOAT", "tensorShape": {}}}}}, {"name": "module_apply_default/FeatureExtractor/MobilenetV2/expanded_conv_3/expand/weights_quant/FakeQuantWithMinMaxVars", "op": "Const", "attr": {"value": {"tensor": {"dtype": "DT_FLOAT", "tensorShape": {"dim": [{"size": "1"}, {"size": "1"}, {"size": "24"}, {"size": "144"}]}}}, "dtype": {"type": "DT_FLOAT"}}}, {"name": "module_apply_default/FeatureExtractor/MobilenetV2/expanded_conv_3/expand/BatchNorm_Fold/bias", "op": "Const", "attr": {"value": {"tensor": {"dtype": "DT_FLOAT", "tensorShape": {"dim": [{"size": "144"}]}}}, "dtype": {"type": "DT_FLOAT"}}}, {"name": "module_apply_default/FeatureExtractor/MobilenetV2/expanded_conv_3/expand/act_quant/min", "op": "Const", "attr": {"dtype": {"type": "DT_FLOAT"}, "value": {"tensor": {"dtype": "DT_FLOAT", "tensorShape": {}}}}}, {"name": "module_apply_default/FeatureExtractor/MobilenetV2/expanded_conv_3/expand/act_quant/max", "op": "Const", "attr": {"dtype": {"type": "DT_FLOAT"}, "value": {"tensor": {"dtype": "DT_FLOAT", "tensorShape": {}}}}}, {"name": "module_apply_default/FeatureExtractor/MobilenetV2/expanded_conv_3/depthwise/weights_quant/FakeQuantWithMinMaxVars", "op": "Const", "attr": {"dtype": {"type": "DT_FLOAT"}, "value": {"tensor": {"dtype": "DT_FLOAT", "tensorShape": {"dim": [{"size": "3"}, {"size": "3"}, {"size": "144"}, {"size": "1"}]}}}}}, {"name": "module_apply_default/FeatureExtractor/MobilenetV2/expanded_conv_3/depthwise/BatchNorm_Fold/bias", "op": "Const", "attr": {"dtype": {"type": "DT_FLOAT"}, "value": {"tensor": {"dtype": "DT_FLOAT", "tensorShape": {"dim": [{"size": "144"}]}}}}}, {"name": "module_apply_default/FeatureExtractor/MobilenetV2/expanded_conv_3/depthwise/act_quant/min", "op": "Const", "attr": {"value": {"tensor": {"dtype": "DT_FLOAT", "tensorShape": {}}}, "dtype": {"type": "DT_FLOAT"}}}, {"name": "module_apply_default/FeatureExtractor/MobilenetV2/expanded_conv_3/depthwise/act_quant/max", "op": "Const", "attr": {"dtype": {"type": "DT_FLOAT"}, "value": {"tensor": {"dtype": "DT_FLOAT", "tensorShape": {}}}}}, {"name": "module_apply_default/FeatureExtractor/MobilenetV2/expanded_conv_3/project/weights_quant/FakeQuantWithMinMaxVars", "op": "Const", "attr": {"value": {"tensor": {"dtype": "DT_FLOAT", "tensorShape": {"dim": [{"size": "1"}, {"size": "1"}, {"size": "144"}, {"size": "24"}]}}}, "dtype": {"type": "DT_FLOAT"}}}, {"name": "module_apply_default/FeatureExtractor/MobilenetV2/expanded_conv_3/project/BatchNorm_Fold/bias", "op": "Const", "attr": {"value": {"tensor": {"dtype": "DT_FLOAT", "tensorShape": {"dim": [{"size": "24"}]}}}, "dtype": {"type": "DT_FLOAT"}}}, {"name": "module_apply_default/FeatureExtractor/MobilenetV2/expanded_conv_3/project/act_quant/min", "op": "Const", "attr": {"value": {"tensor": {"dtype": "DT_FLOAT", "tensorShape": {}}}, "dtype": {"type": "DT_FLOAT"}}}, {"name": "module_apply_default/FeatureExtractor/MobilenetV2/expanded_conv_3/project/act_quant/max", "op": "Const", "attr": {"value": {"tensor": {"dtype": "DT_FLOAT", "tensorShape": {}}}, "dtype": {"type": "DT_FLOAT"}}}, {"name": "module_apply_default/FeatureExtractor/MobilenetV2/expanded_conv_4/post_activation_bypass_quant/min", "op": "Const", "attr": {"value": {"tensor": {"dtype": "DT_FLOAT", "tensorShape": {}}}, "dtype": {"type": "DT_FLOAT"}}}, {"name": "module_apply_default/FeatureExtractor/MobilenetV2/expanded_conv_4/post_activation_bypass_quant/max", "op": "Const", "attr": {"value": {"tensor": {"dtype": "DT_FLOAT", "tensorShape": {}}}, "dtype": {"type": "DT_FLOAT"}}}, {"name": "module_apply_default/FeatureExtractor/MobilenetV2/expanded_conv_5/post_activation_bypass_quant/min", "op": "Const", "attr": {"value": {"tensor": {"dtype": "DT_FLOAT", "tensorShape": {}}}, "dtype": {"type": "DT_FLOAT"}}}, {"name": "module_apply_default/FeatureExtractor/MobilenetV2/expanded_conv_5/post_activation_bypass_quant/max", "op": "Const", "attr": {"dtype": {"type": "DT_FLOAT"}, "value": {"tensor": {"dtype": "DT_FLOAT", "tensorShape": {}}}}}, {"name": "module_apply_default/FeatureExtractor/MobilenetV2/expanded_conv_6/expand/weights_quant/FakeQuantWithMinMaxVars", "op": "Const", "attr": {"dtype": {"type": "DT_FLOAT"}, "value": {"tensor": {"dtype": "DT_FLOAT", "tensorShape": {"dim": [{"size": "1"}, {"size": "1"}, {"size": "24"}, {"size": "144"}]}}}}}, {"name": "module_apply_default/FeatureExtractor/MobilenetV2/expanded_conv_6/expand/BatchNorm_Fold/bias", "op": "Const", "attr": {"value": {"tensor": {"dtype": "DT_FLOAT", "tensorShape": {"dim": [{"size": "144"}]}}}, "dtype": {"type": "DT_FLOAT"}}}, {"name": "module_apply_default/FeatureExtractor/MobilenetV2/expanded_conv_6/expand/act_quant/min", "op": "Const", "attr": {"dtype": {"type": "DT_FLOAT"}, "value": {"tensor": {"dtype": "DT_FLOAT", "tensorShape": {}}}}}, {"name": "module_apply_default/FeatureExtractor/MobilenetV2/expanded_conv_6/expand/act_quant/max", "op": "Const", "attr": {"value": {"tensor": {"dtype": "DT_FLOAT", "tensorShape": {}}}, "dtype": {"type": "DT_FLOAT"}}}, {"name": "module_apply_default/FeatureExtractor/MobilenetV2/expanded_conv_6/depthwise/weights_quant/FakeQuantWithMinMaxVars", "op": "Const", "attr": {"value": {"tensor": {"dtype": "DT_FLOAT", "tensorShape": {"dim": [{"size": "3"}, {"size": "3"}, {"size": "144"}, {"size": "1"}]}}}, "dtype": {"type": "DT_FLOAT"}}}, {"name": "module_apply_default/FeatureExtractor/MobilenetV2/expanded_conv_6/depthwise/BatchNorm_Fold/bias", "op": "Const", "attr": {"dtype": {"type": "DT_FLOAT"}, "value": {"tensor": {"dtype": "DT_FLOAT", "tensorShape": {"dim": [{"size": "144"}]}}}}}, {"name": "module_apply_default/FeatureExtractor/MobilenetV2/expanded_conv_6/depthwise/act_quant/min", "op": "Const", "attr": {"value": {"tensor": {"dtype": "DT_FLOAT", "tensorShape": {}}}, "dtype": {"type": "DT_FLOAT"}}}, {"name": "module_apply_default/FeatureExtractor/MobilenetV2/expanded_conv_6/depthwise/act_quant/max", "op": "Const", "attr": {"dtype": {"type": "DT_FLOAT"}, "value": {"tensor": {"dtype": "DT_FLOAT", "tensorShape": {}}}}}, {"name": "module_apply_default/FeatureExtractor/MobilenetV2/expanded_conv_6/project/weights_quant/FakeQuantWithMinMaxVars", "op": "Const", "attr": {"dtype": {"type": "DT_FLOAT"}, "value": {"tensor": {"dtype": "DT_FLOAT", "tensorShape": {"dim": [{"size": "1"}, {"size": "1"}, {"size": "144"}, {"size": "48"}]}}}}}, {"name": "module_apply_default/FeatureExtractor/MobilenetV2/expanded_conv_6/project/BatchNorm_Fold/bias", "op": "Const", "attr": {"dtype": {"type": "DT_FLOAT"}, "value": {"tensor": {"dtype": "DT_FLOAT", "tensorShape": {"dim": [{"size": "48"}]}}}}}, {"name": "module_apply_default/FeatureExtractor/MobilenetV2/expanded_conv_6/project/act_quant/min", "op": "Const", "attr": {"dtype": {"type": "DT_FLOAT"}, "value": {"tensor": {"dtype": "DT_FLOAT", "tensorShape": {}}}}}, {"name": "module_apply_default/FeatureExtractor/MobilenetV2/expanded_conv_6/project/act_quant/max", "op": "Const", "attr": {"dtype": {"type": "DT_FLOAT"}, "value": {"tensor": {"dtype": "DT_FLOAT", "tensorShape": {}}}}}, {"name": "module_apply_default/FeatureExtractor/MobilenetV2/expanded_conv_7/post_activation_bypass_quant/min", "op": "Const", "attr": {"value": {"tensor": {"dtype": "DT_FLOAT", "tensorShape": {}}}, "dtype": {"type": "DT_FLOAT"}}}, {"name": "module_apply_default/FeatureExtractor/MobilenetV2/expanded_conv_7/post_activation_bypass_quant/max", "op": "Const", "attr": {"value": {"tensor": {"dtype": "DT_FLOAT", "tensorShape": {}}}, "dtype": {"type": "DT_FLOAT"}}}, {"name": "module_apply_default/FeatureExtractor/MobilenetV2/expanded_conv_8/post_activation_bypass_quant/min", "op": "Const", "attr": {"value": {"tensor": {"dtype": "DT_FLOAT", "tensorShape": {}}}, "dtype": {"type": "DT_FLOAT"}}}, {"name": "module_apply_default/FeatureExtractor/MobilenetV2/expanded_conv_8/post_activation_bypass_quant/max", "op": "Const", "attr": {"dtype": {"type": "DT_FLOAT"}, "value": {"tensor": {"dtype": "DT_FLOAT", "tensorShape": {}}}}}, {"name": "module_apply_default/FeatureExtractor/MobilenetV2/expanded_conv_9/post_activation_bypass_quant/min", "op": "Const", "attr": {"value": {"tensor": {"dtype": "DT_FLOAT", "tensorShape": {}}}, "dtype": {"type": "DT_FLOAT"}}}, {"name": "module_apply_default/FeatureExtractor/MobilenetV2/expanded_conv_9/post_activation_bypass_quant/max", "op": "Const", "attr": {"dtype": {"type": "DT_FLOAT"}, "value": {"tensor": {"dtype": "DT_FLOAT", "tensorShape": {}}}}}, {"name": "module_apply_default/FeatureExtractor/MobilenetV2/expanded_conv_10/expand/weights_quant/FakeQuantWithMinMaxVars", "op": "Const", "attr": {"value": {"tensor": {"dtype": "DT_FLOAT", "tensorShape": {"dim": [{"size": "1"}, {"size": "1"}, {"size": "48"}, {"size": "288"}]}}}, "dtype": {"type": "DT_FLOAT"}}}, {"name": "module_apply_default/FeatureExtractor/MobilenetV2/expanded_conv_10/expand/BatchNorm_Fold/bias", "op": "Const", "attr": {"value": {"tensor": {"dtype": "DT_FLOAT", "tensorShape": {"dim": [{"size": "288"}]}}}, "dtype": {"type": "DT_FLOAT"}}}, {"name": "module_apply_default/FeatureExtractor/MobilenetV2/expanded_conv_10/expand/act_quant/min", "op": "Const", "attr": {"value": {"tensor": {"dtype": "DT_FLOAT", "tensorShape": {}}}, "dtype": {"type": "DT_FLOAT"}}}, {"name": "module_apply_default/FeatureExtractor/MobilenetV2/expanded_conv_10/expand/act_quant/max", "op": "Const", "attr": {"value": {"tensor": {"dtype": "DT_FLOAT", "tensorShape": {}}}, "dtype": {"type": "DT_FLOAT"}}}, {"name": "module_apply_default/FeatureExtractor/MobilenetV2/expanded_conv_10/depthwise/weights_quant/FakeQuantWithMinMaxVars", "op": "Const", "attr": {"dtype": {"type": "DT_FLOAT"}, "value": {"tensor": {"dtype": "DT_FLOAT", "tensorShape": {"dim": [{"size": "3"}, {"size": "3"}, {"size": "288"}, {"size": "1"}]}}}}}, {"name": "module_apply_default/FeatureExtractor/MobilenetV2/expanded_conv_10/depthwise/BatchNorm_Fold/bias", "op": "Const", "attr": {"dtype": {"type": "DT_FLOAT"}, "value": {"tensor": {"dtype": "DT_FLOAT", "tensorShape": {"dim": [{"size": "288"}]}}}}}, {"name": "module_apply_default/FeatureExtractor/MobilenetV2/expanded_conv_10/depthwise/act_quant/min", "op": "Const", "attr": {"value": {"tensor": {"dtype": "DT_FLOAT", "tensorShape": {}}}, "dtype": {"type": "DT_FLOAT"}}}, {"name": "module_apply_default/FeatureExtractor/MobilenetV2/expanded_conv_10/depthwise/act_quant/max", "op": "Const", "attr": {"dtype": {"type": "DT_FLOAT"}, "value": {"tensor": {"dtype": "DT_FLOAT", "tensorShape": {}}}}}, {"name": "module_apply_default/FeatureExtractor/MobilenetV2/expanded_conv_10/project/weights_quant/FakeQuantWithMinMaxVars", "op": "Const", "attr": {"value": {"tensor": {"dtype": "DT_FLOAT", "tensorShape": {"dim": [{"size": "1"}, {"size": "1"}, {"size": "288"}, {"size": "72"}]}}}, "dtype": {"type": "DT_FLOAT"}}}, {"name": "module_apply_default/FeatureExtractor/MobilenetV2/expanded_conv_10/project/BatchNorm_Fold/bias", "op": "Const", "attr": {"value": {"tensor": {"dtype": "DT_FLOAT", "tensorShape": {"dim": [{"size": "72"}]}}}, "dtype": {"type": "DT_FLOAT"}}}, {"name": "module_apply_default/FeatureExtractor/MobilenetV2/expanded_conv_10/project/act_quant/min", "op": "Const", "attr": {"value": {"tensor": {"dtype": "DT_FLOAT", "tensorShape": {}}}, "dtype": {"type": "DT_FLOAT"}}}, {"name": "module_apply_default/FeatureExtractor/MobilenetV2/expanded_conv_10/project/act_quant/max", "op": "Const", "attr": {"value": {"tensor": {"dtype": "DT_FLOAT", "tensorShape": {}}}, "dtype": {"type": "DT_FLOAT"}}}, {"name": "module_apply_default/FeatureExtractor/MobilenetV2/expanded_conv_11/post_activation_bypass_quant/min", "op": "Const", "attr": {"value": {"tensor": {"dtype": "DT_FLOAT", "tensorShape": {}}}, "dtype": {"type": "DT_FLOAT"}}}, {"name": "module_apply_default/FeatureExtractor/MobilenetV2/expanded_conv_11/post_activation_bypass_quant/max", "op": "Const", "attr": {"value": {"tensor": {"dtype": "DT_FLOAT", "tensorShape": {}}}, "dtype": {"type": "DT_FLOAT"}}}, {"name": "module_apply_default/FeatureExtractor/MobilenetV2/expanded_conv_12/post_activation_bypass_quant/min", "op": "Const", "attr": {"dtype": {"type": "DT_FLOAT"}, "value": {"tensor": {"dtype": "DT_FLOAT", "tensorShape": {}}}}}, {"name": "module_apply_default/FeatureExtractor/MobilenetV2/expanded_conv_12/post_activation_bypass_quant/max", "op": "Const", "attr": {"dtype": {"type": "DT_FLOAT"}, "value": {"tensor": {"dtype": "DT_FLOAT", "tensorShape": {}}}}}, {"name": "module_apply_default/FeatureExtractor/MobilenetV2/expanded_conv_13/expand/weights_quant/FakeQuantWithMinMaxVars", "op": "Const", "attr": {"dtype": {"type": "DT_FLOAT"}, "value": {"tensor": {"dtype": "DT_FLOAT", "tensorShape": {"dim": [{"size": "1"}, {"size": "1"}, {"size": "72"}, {"size": "432"}]}}}}}, {"name": "module_apply_default/FeatureExtractor/MobilenetV2/expanded_conv_13/expand/BatchNorm_Fold/bias", "op": "Const", "attr": {"dtype": {"type": "DT_FLOAT"}, "value": {"tensor": {"dtype": "DT_FLOAT", "tensorShape": {"dim": [{"size": "432"}]}}}}}, {"name": "module_apply_default/FeatureExtractor/MobilenetV2/expanded_conv_13/expand/act_quant/min", "op": "Const", "attr": {"dtype": {"type": "DT_FLOAT"}, "value": {"tensor": {"dtype": "DT_FLOAT", "tensorShape": {}}}}}, {"name": "module_apply_default/FeatureExtractor/MobilenetV2/expanded_conv_13/expand/act_quant/max", "op": "Const", "attr": {"dtype": {"type": "DT_FLOAT"}, "value": {"tensor": {"dtype": "DT_FLOAT", "tensorShape": {}}}}}, {"name": "module_apply_default/FeatureExtractor/MobilenetV2/expanded_conv_13/depthwise/weights_quant/FakeQuantWithMinMaxVars", "op": "Const", "attr": {"dtype": {"type": "DT_FLOAT"}, "value": {"tensor": {"dtype": "DT_FLOAT", "tensorShape": {"dim": [{"size": "3"}, {"size": "3"}, {"size": "432"}, {"size": "1"}]}}}}}, {"name": "module_apply_default/FeatureExtractor/MobilenetV2/expanded_conv_13/depthwise/BatchNorm_Fold/bias", "op": "Const", "attr": {"dtype": {"type": "DT_FLOAT"}, "value": {"tensor": {"dtype": "DT_FLOAT", "tensorShape": {"dim": [{"size": "432"}]}}}}}, {"name": "module_apply_default/FeatureExtractor/MobilenetV2/expanded_conv_13/depthwise/act_quant/min", "op": "Const", "attr": {"dtype": {"type": "DT_FLOAT"}, "value": {"tensor": {"dtype": "DT_FLOAT", "tensorShape": {}}}}}, {"name": "module_apply_default/FeatureExtractor/MobilenetV2/expanded_conv_13/depthwise/act_quant/max", "op": "Const", "attr": {"dtype": {"type": "DT_FLOAT"}, "value": {"tensor": {"dtype": "DT_FLOAT", "tensorShape": {}}}}}, {"name": "module_apply_default/FeatureExtractor/MobilenetV2/expanded_conv_13/project/weights_quant/FakeQuantWithMinMaxVars", "op": "Const", "attr": {"dtype": {"type": "DT_FLOAT"}, "value": {"tensor": {"dtype": "DT_FLOAT", "tensorShape": {"dim": [{"size": "1"}, {"size": "1"}, {"size": "432"}, {"size": "120"}]}}}}}, {"name": "module_apply_default/FeatureExtractor/MobilenetV2/expanded_conv_13/project/BatchNorm_Fold/bias", "op": "Const", "attr": {"dtype": {"type": "DT_FLOAT"}, "value": {"tensor": {"dtype": "DT_FLOAT", "tensorShape": {"dim": [{"size": "120"}]}}}}}, {"name": "module_apply_default/FeatureExtractor/MobilenetV2/expanded_conv_13/project/act_quant/min", "op": "Const", "attr": {"value": {"tensor": {"dtype": "DT_FLOAT", "tensorShape": {}}}, "dtype": {"type": "DT_FLOAT"}}}, {"name": "module_apply_default/FeatureExtractor/MobilenetV2/expanded_conv_13/project/act_quant/max", "op": "Const", "attr": {"dtype": {"type": "DT_FLOAT"}, "value": {"tensor": {"dtype": "DT_FLOAT", "tensorShape": {}}}}}, {"name": "module_apply_default/FeatureExtractor/MobilenetV2/expanded_conv_14/post_activation_bypass_quant/min", "op": "Const", "attr": {"value": {"tensor": {"dtype": "DT_FLOAT", "tensorShape": {}}}, "dtype": {"type": "DT_FLOAT"}}}, {"name": "module_apply_default/FeatureExtractor/MobilenetV2/expanded_conv_14/post_activation_bypass_quant/max", "op": "Const", "attr": {"value": {"tensor": {"dtype": "DT_FLOAT", "tensorShape": {}}}, "dtype": {"type": "DT_FLOAT"}}}, {"name": "module_apply_default/FeatureExtractor/MobilenetV2/expanded_conv_15/post_activation_bypass_quant/min", "op": "Const", "attr": {"dtype": {"type": "DT_FLOAT"}, "value": {"tensor": {"dtype": "DT_FLOAT", "tensorShape": {}}}}}, {"name": "module_apply_default/FeatureExtractor/MobilenetV2/expanded_conv_15/post_activation_bypass_quant/max", "op": "Const", "attr": {"value": {"tensor": {"dtype": "DT_FLOAT", "tensorShape": {}}}, "dtype": {"type": "DT_FLOAT"}}}, {"name": "module_apply_default/FeatureExtractor/MobilenetV2/expanded_conv_16/expand/weights_quant/FakeQuantWithMinMaxVars", "op": "Const", "attr": {"dtype": {"type": "DT_FLOAT"}, "value": {"tensor": {"dtype": "DT_FLOAT", "tensorShape": {"dim": [{"size": "1"}, {"size": "1"}, {"size": "120"}, {"size": "720"}]}}}}}, {"name": "module_apply_default/FeatureExtractor/MobilenetV2/expanded_conv_16/expand/BatchNorm_Fold/bias", "op": "Const", "attr": {"dtype": {"type": "DT_FLOAT"}, "value": {"tensor": {"dtype": "DT_FLOAT", "tensorShape": {"dim": [{"size": "720"}]}}}}}, {"name": "module_apply_default/FeatureExtractor/MobilenetV2/expanded_conv_16/expand/act_quant/min", "op": "Const", "attr": {"dtype": {"type": "DT_FLOAT"}, "value": {"tensor": {"dtype": "DT_FLOAT", "tensorShape": {}}}}}, {"name": "module_apply_default/FeatureExtractor/MobilenetV2/expanded_conv_16/expand/act_quant/max", "op": "Const", "attr": {"dtype": {"type": "DT_FLOAT"}, "value": {"tensor": {"dtype": "DT_FLOAT", "tensorShape": {}}}}}, {"name": "module_apply_default/FeatureExtractor/MobilenetV2/expanded_conv_16/depthwise/weights_quant/FakeQuantWithMinMaxVars", "op": "Const", "attr": {"value": {"tensor": {"dtype": "DT_FLOAT", "tensorShape": {"dim": [{"size": "3"}, {"size": "3"}, {"size": "720"}, {"size": "1"}]}}}, "dtype": {"type": "DT_FLOAT"}}}, {"name": "module_apply_default/FeatureExtractor/MobilenetV2/expanded_conv_16/depthwise/BatchNorm_Fold/bias", "op": "Const", "attr": {"value": {"tensor": {"dtype": "DT_FLOAT", "tensorShape": {"dim": [{"size": "720"}]}}}, "dtype": {"type": "DT_FLOAT"}}}, {"name": "module_apply_default/FeatureExtractor/MobilenetV2/expanded_conv_16/depthwise/act_quant/min", "op": "Const", "attr": {"dtype": {"type": "DT_FLOAT"}, "value": {"tensor": {"dtype": "DT_FLOAT", "tensorShape": {}}}}}, {"name": "module_apply_default/FeatureExtractor/MobilenetV2/expanded_conv_16/depthwise/act_quant/max", "op": "Const", "attr": {"value": {"tensor": {"dtype": "DT_FLOAT", "tensorShape": {}}}, "dtype": {"type": "DT_FLOAT"}}}, {"name": "module_apply_default/FeatureExtractor/MobilenetV2/expanded_conv_16/project/weights_quant/FakeQuantWithMinMaxVars", "op": "Const", "attr": {"value": {"tensor": {"dtype": "DT_FLOAT", "tensorShape": {"dim": [{"size": "1"}, {"size": "1"}, {"size": "720"}, {"size": "240"}]}}}, "dtype": {"type": "DT_FLOAT"}}}, {"name": "module_apply_default/FeatureExtractor/MobilenetV2/expanded_conv_16/project/BatchNorm_Fold/bias", "op": "Const", "attr": {"dtype": {"type": "DT_FLOAT"}, "value": {"tensor": {"dtype": "DT_FLOAT", "tensorShape": {"dim": [{"size": "240"}]}}}}}, {"name": "module_apply_default/FeatureExtractor/MobilenetV2/expanded_conv_16/project/act_quant/min", "op": "Const", "attr": {"value": {"tensor": {"dtype": "DT_FLOAT", "tensorShape": {}}}, "dtype": {"type": "DT_FLOAT"}}}, {"name": "module_apply_default/FeatureExtractor/MobilenetV2/expanded_conv_16/project/act_quant/max", "op": "Const", "attr": {"value": {"tensor": {"dtype": "DT_FLOAT", "tensorShape": {}}}, "dtype": {"type": "DT_FLOAT"}}}, {"name": "module_apply_default/FeatureExtractor/MobilenetV2/Conv_1/weights_quant/FakeQuantWithMinMaxVars", "op": "Const", "attr": {"value": {"tensor": {"dtype": "DT_FLOAT", "tensorShape": {"dim": [{"size": "1"}, {"size": "1"}, {"size": "240"}, {"size": "960"}]}}}, "dtype": {"type": "DT_FLOAT"}}}, {"name": "module_apply_default/FeatureExtractor/MobilenetV2/Conv_1/BatchNorm_Fold/bias", "op": "Const", "attr": {"value": {"tensor": {"dtype": "DT_FLOAT", "tensorShape": {"dim": [{"size": "960"}]}}}, "dtype": {"type": "DT_FLOAT"}}}, {"name": "module_apply_default/FeatureExtractor/MobilenetV2/Conv_1/act_quant/min", "op": "Const", "attr": {"value": {"tensor": {"dtype": "DT_FLOAT", "tensorShape": {}}}, "dtype": {"type": "DT_FLOAT"}}}, {"name": "module_apply_default/FeatureExtractor/MobilenetV2/Conv_1/act_quant/max", "op": "Const", "attr": {"dtype": {"type": "DT_FLOAT"}, "value": {"tensor": {"dtype": "DT_FLOAT", "tensorShape": {}}}}}, {"name": "module_apply_default/FeatureExtractor/MobilenetV2/layer_19_1_Conv2d_2_1x1_192/weights_quant/FakeQuantWithMinMaxVars", "op": "Const", "attr": {"dtype": {"type": "DT_FLOAT"}, "value": {"tensor": {"dtype": "DT_FLOAT", "tensorShape": {"dim": [{"size": "1"}, {"size": "1"}, {"size": "960"}, {"size": "192"}]}}}}}, {"name": "module_apply_default/FeatureExtractor/MobilenetV2/layer_19_1_Conv2d_2_1x1_192/BatchNorm_Fold/bias", "op": "Const", "attr": {"value": {"tensor": {"dtype": "DT_FLOAT", "tensorShape": {"dim": [{"size": "192"}]}}}, "dtype": {"type": "DT_FLOAT"}}}, {"name": "module_apply_default/FeatureExtractor/MobilenetV2/layer_19_1_Conv2d_2_1x1_192/act_quant/min", "op": "Const", "attr": {"value": {"tensor": {"dtype": "DT_FLOAT", "tensorShape": {}}}, "dtype": {"type": "DT_FLOAT"}}}, {"name": "module_apply_default/FeatureExtractor/MobilenetV2/layer_19_1_Conv2d_2_1x1_192/act_quant/max", "op": "Const", "attr": {"value": {"tensor": {"dtype": "DT_FLOAT", "tensorShape": {}}}, "dtype": {"type": "DT_FLOAT"}}}, {"name": "module_apply_default/FeatureExtractor/MobilenetV2/layer_19_2_Conv2d_2_3x3_s2_384_depthwise/weights_quant/FakeQuantWithMinMaxVars", "op": "Const", "attr": {"dtype": {"type": "DT_FLOAT"}, "value": {"tensor": {"dtype": "DT_FLOAT", "tensorShape": {"dim": [{"size": "3"}, {"size": "3"}, {"size": "192"}, {"size": "1"}]}}}}}, {"name": "module_apply_default/FeatureExtractor/MobilenetV2/layer_19_2_Conv2d_2_3x3_s2_384_depthwise/BatchNorm_Fold/bias", "op": "Const", "attr": {"dtype": {"type": "DT_FLOAT"}, "value": {"tensor": {"dtype": "DT_FLOAT", "tensorShape": {"dim": [{"size": "192"}]}}}}}, {"name": "module_apply_default/FeatureExtractor/MobilenetV2/layer_19_2_Conv2d_2_3x3_s2_384_depthwise/act_quant/min", "op": "Const", "attr": {"value": {"tensor": {"dtype": "DT_FLOAT", "tensorShape": {}}}, "dtype": {"type": "DT_FLOAT"}}}, {"name": "module_apply_default/FeatureExtractor/MobilenetV2/layer_19_2_Conv2d_2_3x3_s2_384_depthwise/act_quant/max", "op": "Const", "attr": {"value": {"tensor": {"dtype": "DT_FLOAT", "tensorShape": {}}}, "dtype": {"type": "DT_FLOAT"}}}, {"name": "module_apply_default/FeatureExtractor/MobilenetV2/layer_19_2_Conv2d_2_3x3_s2_384/weights_quant/FakeQuantWithMinMaxVars", "op": "Const", "attr": {"dtype": {"type": "DT_FLOAT"}, "value": {"tensor": {"dtype": "DT_FLOAT", "tensorShape": {"dim": [{"size": "1"}, {"size": "1"}, {"size": "192"}, {"size": "384"}]}}}}}, {"name": "module_apply_default/FeatureExtractor/MobilenetV2/layer_19_2_Conv2d_2_3x3_s2_384/BatchNorm_Fold/bias", "op": "Const", "attr": {"value": {"tensor": {"dtype": "DT_FLOAT", "tensorShape": {"dim": [{"size": "384"}]}}}, "dtype": {"type": "DT_FLOAT"}}}, {"name": "module_apply_default/FeatureExtractor/MobilenetV2/layer_19_2_Conv2d_2_3x3_s2_384/act_quant/min", "op": "Const", "attr": {"dtype": {"type": "DT_FLOAT"}, "value": {"tensor": {"dtype": "DT_FLOAT", "tensorShape": {}}}}}, {"name": "module_apply_default/FeatureExtractor/MobilenetV2/layer_19_2_Conv2d_2_3x3_s2_384/act_quant/max", "op": "Const", "attr": {"value": {"tensor": {"dtype": "DT_FLOAT", "tensorShape": {}}}, "dtype": {"type": "DT_FLOAT"}}}, {"name": "module_apply_default/FeatureExtractor/MobilenetV2/layer_19_1_Conv2d_3_1x1_96/weights_quant/FakeQuantWithMinMaxVars", "op": "Const", "attr": {"dtype": {"type": "DT_FLOAT"}, "value": {"tensor": {"dtype": "DT_FLOAT", "tensorShape": {"dim": [{"size": "1"}, {"size": "1"}, {"size": "384"}, {"size": "96"}]}}}}}, {"name": "module_apply_default/FeatureExtractor/MobilenetV2/layer_19_1_Conv2d_3_1x1_96/BatchNorm_Fold/bias", "op": "Const", "attr": {"dtype": {"type": "DT_FLOAT"}, "value": {"tensor": {"dtype": "DT_FLOAT", "tensorShape": {"dim": [{"size": "96"}]}}}}}, {"name": "module_apply_default/FeatureExtractor/MobilenetV2/layer_19_1_Conv2d_3_1x1_96/act_quant/min", "op": "Const", "attr": {"dtype": {"type": "DT_FLOAT"}, "value": {"tensor": {"dtype": "DT_FLOAT", "tensorShape": {}}}}}, {"name": "module_apply_default/FeatureExtractor/MobilenetV2/layer_19_1_Conv2d_3_1x1_96/act_quant/max", "op": "Const", "attr": {"dtype": {"type": "DT_FLOAT"}, "value": {"tensor": {"dtype": "DT_FLOAT", "tensorShape": {}}}}}, {"name": "module_apply_default/FeatureExtractor/MobilenetV2/layer_19_2_Conv2d_3_3x3_s2_192_depthwise/weights_quant/FakeQuantWithMinMaxVars", "op": "Const", "attr": {"value": {"tensor": {"dtype": "DT_FLOAT", "tensorShape": {"dim": [{"size": "3"}, {"size": "3"}, {"size": "96"}, {"size": "1"}]}}}, "dtype": {"type": "DT_FLOAT"}}}, {"name": "module_apply_default/FeatureExtractor/MobilenetV2/layer_19_2_Conv2d_3_3x3_s2_192_depthwise/BatchNorm_Fold/bias", "op": "Const", "attr": {"value": {"tensor": {"dtype": "DT_FLOAT", "tensorShape": {"dim": [{"size": "96"}]}}}, "dtype": {"type": "DT_FLOAT"}}}, {"name": "module_apply_default/FeatureExtractor/MobilenetV2/layer_19_2_Conv2d_3_3x3_s2_192_depthwise/act_quant/min", "op": "Const", "attr": {"dtype": {"type": "DT_FLOAT"}, "value": {"tensor": {"dtype": "DT_FLOAT", "tensorShape": {}}}}}, {"name": "module_apply_default/FeatureExtractor/MobilenetV2/layer_19_2_Conv2d_3_3x3_s2_192_depthwise/act_quant/max", "op": "Const", "attr": {"value": {"tensor": {"dtype": "DT_FLOAT", "tensorShape": {}}}, "dtype": {"type": "DT_FLOAT"}}}, {"name": "module_apply_default/FeatureExtractor/MobilenetV2/layer_19_2_Conv2d_3_3x3_s2_192/weights_quant/FakeQuantWithMinMaxVars", "op": "Const", "attr": {"value": {"tensor": {"dtype": "DT_FLOAT", "tensorShape": {"dim": [{"size": "1"}, {"size": "1"}, {"size": "96"}, {"size": "192"}]}}}, "dtype": {"type": "DT_FLOAT"}}}, {"name": "module_apply_default/FeatureExtractor/MobilenetV2/layer_19_2_Conv2d_3_3x3_s2_192/BatchNorm_Fold/bias", "op": "Const", "attr": {"value": {"tensor": {"dtype": "DT_FLOAT", "tensorShape": {"dim": [{"size": "192"}]}}}, "dtype": {"type": "DT_FLOAT"}}}, {"name": "module_apply_default/FeatureExtractor/MobilenetV2/layer_19_2_Conv2d_3_3x3_s2_192/act_quant/min", "op": "Const", "attr": {"value": {"tensor": {"dtype": "DT_FLOAT", "tensorShape": {}}}, "dtype": {"type": "DT_FLOAT"}}}, {"name": "module_apply_default/FeatureExtractor/MobilenetV2/layer_19_2_Conv2d_3_3x3_s2_192/act_quant/max", "op": "Const", "attr": {"dtype": {"type": "DT_FLOAT"}, "value": {"tensor": {"dtype": "DT_FLOAT", "tensorShape": {}}}}}, {"name": "module_apply_default/FeatureExtractor/MobilenetV2/layer_19_1_Conv2d_4_1x1_96/weights_quant/FakeQuantWithMinMaxVars", "op": "Const", "attr": {"dtype": {"type": "DT_FLOAT"}, "value": {"tensor": {"dtype": "DT_FLOAT", "tensorShape": {"dim": [{"size": "1"}, {"size": "1"}, {"size": "192"}, {"size": "96"}]}}}}}, {"name": "module_apply_default/FeatureExtractor/MobilenetV2/layer_19_1_Conv2d_4_1x1_96/BatchNorm_Fold/bias", "op": "Const", "attr": {"dtype": {"type": "DT_FLOAT"}, "value": {"tensor": {"dtype": "DT_FLOAT", "tensorShape": {"dim": [{"size": "96"}]}}}}}, {"name": "module_apply_default/FeatureExtractor/MobilenetV2/layer_19_1_Conv2d_4_1x1_96/act_quant/min", "op": "Const", "attr": {"value": {"tensor": {"dtype": "DT_FLOAT", "tensorShape": {}}}, "dtype": {"type": "DT_FLOAT"}}}, {"name": "module_apply_default/FeatureExtractor/MobilenetV2/layer_19_1_Conv2d_4_1x1_96/act_quant/max", "op": "Const", "attr": {"value": {"tensor": {"dtype": "DT_FLOAT", "tensorShape": {}}}, "dtype": {"type": "DT_FLOAT"}}}, {"name": "module_apply_default/FeatureExtractor/MobilenetV2/layer_19_2_Conv2d_4_3x3_s2_192_depthwise/weights_quant/FakeQuantWithMinMaxVars", "op": "Const", "attr": {"value": {"tensor": {"dtype": "DT_FLOAT", "tensorShape": {"dim": [{"size": "3"}, {"size": "3"}, {"size": "96"}, {"size": "1"}]}}}, "dtype": {"type": "DT_FLOAT"}}}, {"name": "module_apply_default/FeatureExtractor/MobilenetV2/layer_19_2_Conv2d_4_3x3_s2_192_depthwise/BatchNorm_Fold/bias", "op": "Const", "attr": {"value": {"tensor": {"dtype": "DT_FLOAT", "tensorShape": {"dim": [{"size": "96"}]}}}, "dtype": {"type": "DT_FLOAT"}}}, {"name": "module_apply_default/FeatureExtractor/MobilenetV2/layer_19_2_Conv2d_4_3x3_s2_192_depthwise/act_quant/min", "op": "Const", "attr": {"value": {"tensor": {"dtype": "DT_FLOAT", "tensorShape": {}}}, "dtype": {"type": "DT_FLOAT"}}}, {"name": "module_apply_default/FeatureExtractor/MobilenetV2/layer_19_2_Conv2d_4_3x3_s2_192_depthwise/act_quant/max", "op": "Const", "attr": {"value": {"tensor": {"dtype": "DT_FLOAT", "tensorShape": {}}}, "dtype": {"type": "DT_FLOAT"}}}, {"name": "module_apply_default/FeatureExtractor/MobilenetV2/layer_19_2_Conv2d_4_3x3_s2_192/weights_quant/FakeQuantWithMinMaxVars", "op": "Const", "attr": {"value": {"tensor": {"dtype": "DT_FLOAT", "tensorShape": {"dim": [{"size": "1"}, {"size": "1"}, {"size": "96"}, {"size": "192"}]}}}, "dtype": {"type": "DT_FLOAT"}}}, {"name": "module_apply_default/FeatureExtractor/MobilenetV2/layer_19_2_Conv2d_4_3x3_s2_192/BatchNorm_Fold/bias", "op": "Const", "attr": {"value": {"tensor": {"dtype": "DT_FLOAT", "tensorShape": {"dim": [{"size": "192"}]}}}, "dtype": {"type": "DT_FLOAT"}}}, {"name": "module_apply_default/FeatureExtractor/MobilenetV2/layer_19_2_Conv2d_4_3x3_s2_192/act_quant/min", "op": "Const", "attr": {"value": {"tensor": {"dtype": "DT_FLOAT", "tensorShape": {}}}, "dtype": {"type": "DT_FLOAT"}}}, {"name": "module_apply_default/FeatureExtractor/MobilenetV2/layer_19_2_Conv2d_4_3x3_s2_192/act_quant/max", "op": "Const", "attr": {"value": {"tensor": {"dtype": "DT_FLOAT", "tensorShape": {}}}, "dtype": {"type": "DT_FLOAT"}}}, {"name": "module_apply_default/FeatureExtractor/MobilenetV2/layer_19_1_Conv2d_5_1x1_48/weights_quant/FakeQuantWithMinMaxVars", "op": "Const", "attr": {"value": {"tensor": {"dtype": "DT_FLOAT", "tensorShape": {"dim": [{"size": "1"}, {"size": "1"}, {"size": "192"}, {"size": "48"}]}}}, "dtype": {"type": "DT_FLOAT"}}}, {"name": "module_apply_default/FeatureExtractor/MobilenetV2/layer_19_1_Conv2d_5_1x1_48/BatchNorm_Fold/bias", "op": "Const", "attr": {"dtype": {"type": "DT_FLOAT"}, "value": {"tensor": {"dtype": "DT_FLOAT", "tensorShape": {"dim": [{"size": "48"}]}}}}}, {"name": "module_apply_default/FeatureExtractor/MobilenetV2/layer_19_1_Conv2d_5_1x1_48/act_quant/min", "op": "Const", "attr": {"value": {"tensor": {"dtype": "DT_FLOAT", "tensorShape": {}}}, "dtype": {"type": "DT_FLOAT"}}}, {"name": "module_apply_default/FeatureExtractor/MobilenetV2/layer_19_1_Conv2d_5_1x1_48/act_quant/max", "op": "Const", "attr": {"value": {"tensor": {"dtype": "DT_FLOAT", "tensorShape": {}}}, "dtype": {"type": "DT_FLOAT"}}}, {"name": "module_apply_default/FeatureExtractor/MobilenetV2/layer_19_2_Conv2d_5_3x3_s2_96_depthwise/weights_quant/FakeQuantWithMinMaxVars", "op": "Const", "attr": {"value": {"tensor": {"dtype": "DT_FLOAT", "tensorShape": {"dim": [{"size": "3"}, {"size": "3"}, {"size": "48"}, {"size": "1"}]}}}, "dtype": {"type": "DT_FLOAT"}}}, {"name": "module_apply_default/FeatureExtractor/MobilenetV2/layer_19_2_Conv2d_5_3x3_s2_96_depthwise/BatchNorm_Fold/bias", "op": "Const", "attr": {"value": {"tensor": {"dtype": "DT_FLOAT", "tensorShape": {"dim": [{"size": "48"}]}}}, "dtype": {"type": "DT_FLOAT"}}}, {"name": "module_apply_default/FeatureExtractor/MobilenetV2/layer_19_2_Conv2d_5_3x3_s2_96_depthwise/act_quant/min", "op": "Const", "attr": {"value": {"tensor": {"dtype": "DT_FLOAT", "tensorShape": {}}}, "dtype": {"type": "DT_FLOAT"}}}, {"name": "module_apply_default/FeatureExtractor/MobilenetV2/layer_19_2_Conv2d_5_3x3_s2_96_depthwise/act_quant/max", "op": "Const", "attr": {"value": {"tensor": {"dtype": "DT_FLOAT", "tensorShape": {}}}, "dtype": {"type": "DT_FLOAT"}}}, {"name": "module_apply_default/FeatureExtractor/MobilenetV2/layer_19_2_Conv2d_5_3x3_s2_96/weights_quant/FakeQuantWithMinMaxVars", "op": "Const", "attr": {"value": {"tensor": {"dtype": "DT_FLOAT", "tensorShape": {"dim": [{"size": "1"}, {"size": "1"}, {"size": "48"}, {"size": "96"}]}}}, "dtype": {"type": "DT_FLOAT"}}}, {"name": "module_apply_default/FeatureExtractor/MobilenetV2/layer_19_2_Conv2d_5_3x3_s2_96/BatchNorm_Fold/bias", "op": "Const", "attr": {"value": {"tensor": {"dtype": "DT_FLOAT", "tensorShape": {"dim": [{"size": "96"}]}}}, "dtype": {"type": "DT_FLOAT"}}}, {"name": "module_apply_default/FeatureExtractor/MobilenetV2/layer_19_2_Conv2d_5_3x3_s2_96/act_quant/min", "op": "Const", "attr": {"value": {"tensor": {"dtype": "DT_FLOAT", "tensorShape": {}}}, "dtype": {"type": "DT_FLOAT"}}}, {"name": "module_apply_default/FeatureExtractor/MobilenetV2/layer_19_2_Conv2d_5_3x3_s2_96/act_quant/max", "op": "Const", "attr": {"value": {"tensor": {"dtype": "DT_FLOAT", "tensorShape": {}}}, "dtype": {"type": "DT_FLOAT"}}}, {"name": "module_apply_default/BoxPredictor_5/strided_slice/stack", "op": "Const", "attr": {"dtype": {"type": "DT_INT32"}, "value": {"tensor": {"dtype": "DT_INT32", "tensorShape": {"dim": [{"size": "1"}]}}}}}, {"name": "module_apply_default/BoxPredictor_5/strided_slice/stack_1", "op": "Const", "attr": {"dtype": {"type": "DT_INT32"}, "value": {"tensor": {"dtype": "DT_INT32", "tensorShape": {"dim": [{"size": "1"}]}}}}}, {"name": "module_apply_default/BoxPredictor_5/strided_slice/stack_2", "op": "Const", "attr": {"value": {"tensor": {"dtype": "DT_INT32", "tensorShape": {"dim": [{"size": "1"}]}}}, "dtype": {"type": "DT_INT32"}}}, {"name": "module_apply_default/BoxPredictor_5/Reshape/shape/1", "op": "Const", "attr": {"value": {"tensor": {"dtype": "DT_INT32", "tensorShape": {}}}, "dtype": {"type": "DT_INT32"}}}, {"name": "module_apply_default/BoxPredictor_5/Reshape/shape/2", "op": "Const", "attr": {"value": {"tensor": {"dtype": "DT_INT32", "tensorShape": {}}}, "dtype": {"type": "DT_INT32"}}}, {"name": "module_apply_default/BoxPredictor_5/Reshape/shape/3", "op": "Const", "attr": {"value": {"tensor": {"dtype": "DT_INT32", "tensorShape": {}}}, "dtype": {"type": "DT_INT32"}}}, {"name": "module_apply_default/concat/axis", "op": "Const", "attr": {"value": {"tensor": {"dtype": "DT_INT32", "tensorShape": {}}}, "dtype": {"type": "DT_INT32"}}}, {"name": "module_apply_default/Postprocessor/strided_slice_1/stack", "op": "Const", "attr": {"value": {"tensor": {"dtype": "DT_INT32", "tensorShape": {"dim": [{"size": "1"}]}}}, "dtype": {"type": "DT_INT32"}}}, {"name": "module_apply_default/Postprocessor/strided_slice_1/stack_1", "op": "Const", "attr": {"dtype": {"type": "DT_INT32"}, "value": {"tensor": {"dtype": "DT_INT32", "tensorShape": {"dim": [{"size": "1"}]}}}}}, {"name": "module_apply_default/Postprocessor/strided_slice_1/stack_2", "op": "Const", "attr": {"value": {"tensor": {"dtype": "DT_INT32", "tensorShape": {"dim": [{"size": "1"}]}}}, "dtype": {"type": "DT_INT32"}}}, {"name": "module_apply_default/Postprocessor/stack/2", "op": "Const", "attr": {"value": {"tensor": {"dtype": "DT_INT32", "tensorShape": {}}}, "dtype": {"type": "DT_INT32"}}}, {"name": "module_apply_default/Postprocessor/ExpandDims_1/dim", "op": "Const", "attr": {"dtype": {"type": "DT_INT32"}, "value": {"tensor": {"dtype": "DT_INT32", "tensorShape": {}}}}}, {"name": "module_apply_default/Postprocessor/BatchMultiClassNonMaxSuppression/map/strided_slice/stack", "op": "Const", "attr": {"dtype": {"type": "DT_INT32"}, "value": {"tensor": {"dtype": "DT_INT32", "tensorShape": {"dim": [{"size": "1"}]}}}}}, {"name": "module_apply_default/Postprocessor/BatchMultiClassNonMaxSuppression/map/strided_slice/stack_1", "op": "Const", "attr": {"dtype": {"type": "DT_INT32"}, "value": {"tensor": {"dtype": "DT_INT32", "tensorShape": {"dim": [{"size": "1"}]}}}}}, {"name": "module_apply_default/Postprocessor/BatchMultiClassNonMaxSuppression/map/strided_slice/stack_2", "op": "Const", "attr": {"value": {"tensor": {"dtype": "DT_INT32", "tensorShape": {"dim": [{"size": "1"}]}}}, "dtype": {"type": "DT_INT32"}}}, {"name": "module_apply_default/Postprocessor/BatchMultiClassNonMaxSuppression/map/while/Enter_1", "op": "Enter", "input": ["module_apply_default/Postprocessor/BatchMultiClassNonMaxSuppression/map/Const"], "attr": {"frame_name": {"s": "UG9zdHByb2Nlc3Nvci9CYXRjaE11bHRpQ2xhc3NOb25NYXhTdXBwcmVzc2lvbi9tYXAvd2hpbGUvd2hpbGVfY29udGV4dA=="}, "parallel_iterations": {"i": "32"}, "T": {"type": "DT_INT32"}, "is_constant": {"b": false}}}, {"name": "module_apply_default/Postprocessor/BatchMultiClassNonMaxSuppression/map/while/Enter", "op": "Enter", "input": ["module_apply_default/Postprocessor/BatchMultiClassNonMaxSuppression/map/while/iteration_counter"], "attr": {"parallel_iterations": {"i": "32"}, "T": {"type": "DT_INT32"}, "is_constant": {"b": false}, "frame_name": {"s": "UG9zdHByb2Nlc3Nvci9CYXRjaE11bHRpQ2xhc3NOb25NYXhTdXBwcmVzc2lvbi9tYXAvd2hpbGUvd2hpbGVfY29udGV4dA=="}}}, {"name": "module_apply_default/Preprocessor/map/while/Enter_1", "op": "Enter", "input": ["module_apply_default/Preprocessor/map/Const"], "attr": {"T": {"type": "DT_INT32"}, "frame_name": {"s": "UHJlcHJvY2Vzc29yL21hcC93aGlsZS93aGlsZV9jb250ZXh0"}, "is_constant": {"b": false}, "parallel_iterations": {"i": "32"}}}, {"name": "module_apply_default/Preprocessor/map/while/Enter", "op": "Enter", "input": ["module_apply_default/Preprocessor/map/while/iteration_counter"], "attr": {"parallel_iterations": {"i": "32"}, "is_constant": {"b": false}, "frame_name": {"s": "UHJlcHJvY2Vzc29yL21hcC93aGlsZS93aGlsZV9jb250ZXh0"}, "T": {"type": "DT_INT32"}}}, {"name": "module_apply_default/hub_input/Mul", "op": "Mul", "input": ["images", "module_apply_default/hub_input/Mul/y"], "attr": {"T": {"type": "DT_FLOAT"}}}, {"name": "module_apply_default/Postprocessor/BatchMultiClassNonMaxSuppression/map/while/Merge_1", "op": "Merge", "input": ["module_apply_default/Postprocessor/BatchMultiClassNonMaxSuppression/map/while/Enter_1", "module_apply_default/Postprocessor/BatchMultiClassNonMaxSuppression/map/while/NextIteration_1"], "attr": {"N": {"i": "2"}, "T": {"type": "DT_INT32"}}}, {"name": "module_apply_default/Postprocessor/BatchMultiClassNonMaxSuppression/map/while/Merge", "op": "Merge", "input": ["module_apply_default/Postprocessor/BatchMultiClassNonMaxSuppression/map/while/Enter", "module_apply_default/Postprocessor/BatchMultiClassNonMaxSuppression/map/while/NextIteration"], "attr": {"T": {"type": "DT_INT32"}, "N": {"i": "2"}}}, {"name": "module_apply_default/Preprocessor/map/while/Merge_1", "op": "Merge", "input": ["module_apply_default/Preprocessor/map/while/Enter_1", "module_apply_default/Preprocessor/map/while/NextIteration_1"], "attr": {"N": {"i": "2"}, "T": {"type": "DT_INT32"}}}, {"name": "module_apply_default/Preprocessor/map/while/Merge", "op": "Merge", "input": ["module_apply_default/Preprocessor/map/while/Enter", "module_apply_default/Preprocessor/map/while/NextIteration"], "attr": {"N": {"i": "2"}, "T": {"type": "DT_INT32"}}}, {"name": "module_apply_default/hub_input/Cast", "op": "Cast", "input": ["module_apply_default/hub_input/Mul"], "attr": {"Truncate": {"b": false}, "DstT": {"type": "DT_UINT8"}, "SrcT": {"type": "DT_FLOAT"}}}, {"name": "module_apply_default/Cast", "op": "Cast", "input": ["module_apply_default/hub_input/Cast"], "attr": {"SrcT": {"type": "DT_UINT8"}, "DstT": {"type": "DT_FLOAT"}, "Truncate": {"b": false}}}, {"name": "module_apply_default/Preprocessor/map/TensorArrayUnstack/Shape", "op": "Shape", "input": ["module_apply_default/Cast"], "attr": {"T": {"type": "DT_FLOAT"}, "out_type": {"type": "DT_INT32"}}}, {"name": "module_apply_default/Preprocessor/map/Shape", "op": "Shape", "input": ["module_apply_default/Cast"], "attr": {"out_type": {"type": "DT_INT32"}, "T": {"type": "DT_FLOAT"}}}, {"name": "module_apply_default/Preprocessor/map/TensorArrayUnstack/strided_slice", "op": "StridedSlice", "input": ["module_apply_default/Preprocessor/map/TensorArrayUnstack/Shape", "module_apply_default/Preprocessor/map/TensorArrayUnstack/strided_slice/stack", "module_apply_default/Preprocessor/map/TensorArrayUnstack/strided_slice/stack_1", "module_apply_default/Preprocessor/map/TensorArrayUnstack/strided_slice/stack_2"], "attr": {"begin_mask": {"i": "0"}, "end_mask": {"i": "0"}, "T": {"type": "DT_INT32"}, "shrink_axis_mask": {"i": "1"}, "new_axis_mask": {"i": "0"}, "Index": {"type": "DT_INT32"}, "ellipsis_mask": {"i": "0"}}}, {"name": "module_apply_default/Preprocessor/map/strided_slice", "op": "StridedSlice", "input": ["module_apply_default/Preprocessor/map/Shape", "module_apply_default/Preprocessor/map/strided_slice/stack", "module_apply_default/Preprocessor/map/strided_slice/stack_1", "module_apply_default/Preprocessor/map/strided_slice/stack_2"], "attr": {"shrink_axis_mask": {"i": "1"}, "begin_mask": {"i": "0"}, "new_axis_mask": {"i": "0"}, "end_mask": {"i": "0"}, "T": {"type": "DT_INT32"}, "Index": {"type": "DT_INT32"}, "ellipsis_mask": {"i": "0"}}}, {"name": "module_apply_default/Preprocessor/map/TensorArrayUnstack/range", "op": "Range", "input": ["module_apply_default/Preprocessor/map/TensorArrayUnstack/range/start", "module_apply_default/Preprocessor/map/TensorArrayUnstack/strided_slice", "module_apply_default/Preprocessor/map/TensorArrayUnstack/range/delta"], "attr": {"Tidx": {"type": "DT_INT32"}}}, {"name": "module_apply_default/Preprocessor/map/TensorArray_2", "op": "TensorArrayV3", "input": ["module_apply_default/Preprocessor/map/strided_slice"], "attr": {"dynamic_size": {"b": false}, "identical_element_shapes": {"b": true}, "element_shape": {"shape": {"unknownRank": true}}, "tensor_array_name": {"s": ""}, "clear_after_read": {"b": true}, "dtype": {"type": "DT_INT32"}}}, {"name": "module_apply_default/Preprocessor/map/TensorArray_1", "op": "TensorArrayV3", "input": ["module_apply_default/Preprocessor/map/strided_slice"], "attr": {"tensor_array_name": {"s": ""}, "element_shape": {"shape": {"unknownRank": true}}, "dtype": {"type": "DT_FLOAT"}, "clear_after_read": {"b": true}, "dynamic_size": {"b": false}, "identical_element_shapes": {"b": true}}}, {"name": "module_apply_default/Preprocessor/map/TensorArray", "op": "TensorArrayV3", "input": ["module_apply_default/Preprocessor/map/strided_slice"], "attr": {"dynamic_size": {"b": false}, "dtype": {"type": "DT_FLOAT"}, "identical_element_shapes": {"b": true}, "tensor_array_name": {"s": ""}, "element_shape": {"shape": {"unknownRank": true}}, "clear_after_read": {"b": true}}}, {"name": "module_apply_default/Preprocessor/map/while/Less/Enter", "op": "Enter", "input": ["module_apply_default/Preprocessor/map/strided_slice"], "attr": {"T": {"type": "DT_INT32"}, "frame_name": {"s": "UHJlcHJvY2Vzc29yL21hcC93aGlsZS93aGlsZV9jb250ZXh0"}, "is_constant": {"b": true}, "parallel_iterations": {"i": "32"}}}, {"name": "module_apply_default/Preprocessor/map/while/TensorArrayWrite_1/TensorArrayWriteV3/Enter", "op": "Enter", "input": ["module_apply_default/Preprocessor/map/TensorArray_2"], "attr": {"frame_name": {"s": "UHJlcHJvY2Vzc29yL21hcC93aGlsZS93aGlsZV9jb250ZXh0"}, "parallel_iterations": {"i": "32"}, "T": {"type": "DT_RESOURCE"}, "is_constant": {"b": true}}}, {"name": "module_apply_default/Preprocessor/map/while/Enter_3", "op": "Enter", "input": ["module_apply_default/Preprocessor/map/TensorArray_2:1"], "attr": {"frame_name": {"s": "UHJlcHJvY2Vzc29yL21hcC93aGlsZS93aGlsZV9jb250ZXh0"}, "parallel_iterations": {"i": "32"}, "T": {"type": "DT_FLOAT"}, "is_constant": {"b": false}}}, {"name": "module_apply_default/Preprocessor/map/while/TensorArrayWrite/TensorArrayWriteV3/Enter", "op": "Enter", "input": ["module_apply_default/Preprocessor/map/TensorArray_1"], "attr": {"parallel_iterations": {"i": "32"}, "is_constant": {"b": true}, "frame_name": {"s": "UHJlcHJvY2Vzc29yL21hcC93aGlsZS93aGlsZV9jb250ZXh0"}, "T": {"type": "DT_RESOURCE"}}}, {"name": "module_apply_default/Preprocessor/map/while/Enter_2", "op": "Enter", "input": ["module_apply_default/Preprocessor/map/TensorArray_1:1"], "attr": {"parallel_iterations": {"i": "32"}, "is_constant": {"b": false}, "frame_name": {"s": "UHJlcHJvY2Vzc29yL21hcC93aGlsZS93aGlsZV9jb250ZXh0"}, "T": {"type": "DT_FLOAT"}}}, {"name": "module_apply_default/Preprocessor/map/while/TensorArrayReadV3/Enter", "op": "Enter", "input": ["module_apply_default/Preprocessor/map/TensorArray"], "attr": {"frame_name": {"s": "UHJlcHJvY2Vzc29yL21hcC93aGlsZS93aGlsZV9jb250ZXh0"}, "parallel_iterations": {"i": "32"}, "T": {"type": "DT_RESOURCE"}, "is_constant": {"b": true}}}, {"name": "module_apply_default/Preprocessor/map/TensorArrayUnstack/TensorArrayScatter/TensorArrayScatterV3", "op": "TensorArrayScatterV3", "input": ["module_apply_default/Preprocessor/map/TensorArray", "module_apply_default/Preprocessor/map/TensorArrayUnstack/range", "module_apply_default/Cast", "module_apply_default/Preprocessor/map/TensorArray:1"], "attr": {"T": {"type": "DT_FLOAT"}}}, {"name": "module_apply_default/Preprocessor/map/while/Less", "op": "Less", "input": ["module_apply_default/Preprocessor/map/while/Merge", "module_apply_default/Preprocessor/map/while/Less/Enter"], "attr": {"T": {"type": "DT_INT32"}}}, {"name": "module_apply_default/Preprocessor/map/while/Less_1", "op": "Less", "input": ["module_apply_default/Preprocessor/map/while/Merge_1", "module_apply_default/Preprocessor/map/while/Less/Enter"], "attr": {"T": {"type": "DT_INT32"}}}, {"name": "module_apply_default/Preprocessor/map/while/Merge_3", "op": "Merge", "input": ["module_apply_default/Preprocessor/map/while/Enter_3", "module_apply_default/Preprocessor/map/while/NextIteration_3"], "attr": {"T": {"type": "DT_FLOAT"}, "N": {"i": "2"}}}, {"name": "module_apply_default/Preprocessor/map/while/Merge_2", "op": "Merge", "input": ["module_apply_default/Preprocessor/map/while/Enter_2", "module_apply_default/Preprocessor/map/while/NextIteration_2"], "attr": {"N": {"i": "2"}, "T": {"type": "DT_FLOAT"}}}, {"name": "module_apply_default/Preprocessor/map/while/TensorArrayReadV3/Enter_1", "op": "Enter", "input": ["module_apply_default/Preprocessor/map/TensorArrayUnstack/TensorArrayScatter/TensorArrayScatterV3"], "attr": {"T": {"type": "DT_FLOAT"}, "is_constant": {"b": true}, "frame_name": {"s": "UHJlcHJvY2Vzc29yL21hcC93aGlsZS93aGlsZV9jb250ZXh0"}, "parallel_iterations": {"i": "32"}}}, {"name": "module_apply_default/Preprocessor/map/while/LogicalAnd", "op": "LogicalAnd", "input": ["module_apply_default/Preprocessor/map/while/Less", "module_apply_default/Preprocessor/map/while/Less_1"]}, {"name": "module_apply_default/Preprocessor/map/while/LoopCond", "op": "LoopCond", "input": ["module_apply_default/Preprocessor/map/while/LogicalAnd"]}, {"name": "module_apply_default/Preprocessor/map/while/Switch_3", "op": "Switch", "input": ["module_apply_default/Preprocessor/map/while/Merge_3", "module_apply_default/Preprocessor/map/while/LoopCond"], "attr": {"T": {"type": "DT_FLOAT"}}}, {"name": "module_apply_default/Preprocessor/map/while/Switch_1", "op": "Switch", "input": ["module_apply_default/Preprocessor/map/while/Merge_1", "module_apply_default/Preprocessor/map/while/LoopCond"], "attr": {"T": {"type": "DT_INT32"}}}, {"name": "module_apply_default/Preprocessor/map/while/Switch", "op": "Switch", "input": ["module_apply_default/Preprocessor/map/while/Merge", "module_apply_default/Preprocessor/map/while/LoopCond"], "attr": {"T": {"type": "DT_INT32"}}}, {"name": "module_apply_default/Preprocessor/map/while/Switch_2", "op": "Switch", "input": ["module_apply_default/Preprocessor/map/while/Merge_2", "module_apply_default/Preprocessor/map/while/LoopCond"], "attr": {"T": {"type": "DT_FLOAT"}}}, {"name": "module_apply_default/Preprocessor/map/while/Exit_3", "op": "Exit", "input": ["module_apply_default/Preprocessor/map/while/Switch_3"], "attr": {"T": {"type": "DT_FLOAT"}}}, {"name": "module_apply_default/Preprocessor/map/while/TensorArrayReadV3", "op": "TensorArrayReadV3", "input": ["module_apply_default/Preprocessor/map/while/TensorArrayReadV3/Enter", "module_apply_default/Preprocessor/map/while/Switch_1:1", "module_apply_default/Preprocessor/map/while/TensorArrayReadV3/Enter_1"], "attr": {"dtype": {"type": "DT_FLOAT"}}}, {"name": "module_apply_default/Preprocessor/map/while/Identity", "op": "Identity", "input": ["module_apply_default/Preprocessor/map/while/Switch:1"], "attr": {"T": {"type": "DT_INT32"}}}, {"name": "module_apply_default/Preprocessor/map/while/Exit_2", "op": "Exit", "input": ["module_apply_default/Preprocessor/map/while/Switch_2"], "attr": {"T": {"type": "DT_FLOAT"}}}, {"name": "module_apply_default/Preprocessor/map/TensorArrayStack_1/TensorArraySizeV3", "op": "TensorArraySizeV3", "input": ["module_apply_default/Preprocessor/map/TensorArray_2", "module_apply_default/Preprocessor/map/while/Exit_3"]}, {"name": "module_apply_default/Preprocessor/map/while/ResizeImage/stack_1", "op": "Const", "input": ["^module_apply_default/Preprocessor/map/while/Identity"], "attr": {"value": {"tensor": {"dtype": "DT_INT32", "tensorShape": {"dim": [{"size": "3"}]}}}, "dtype": {"type": "DT_INT32"}}}, {"name": "module_apply_default/Preprocessor/map/while/ResizeImage/resize/ExpandDims/dim", "op": "Const", "input": ["^module_apply_default/Preprocessor/map/while/Identity"], "attr": {"value": {"tensor": {"dtype": "DT_INT32", "tensorShape": {}}}, "dtype": {"type": "DT_INT32"}}}, {"name": "module_apply_default/Preprocessor/map/while/ResizeImage/stack", "op": "Const", "input": ["^module_apply_default/Preprocessor/map/while/Identity"], "attr": {"value": {"tensor": {"dtype": "DT_INT32", "tensorShape": {"dim": [{"size": "2"}]}}}, "dtype": {"type": "DT_INT32"}}}, {"name": "module_apply_default/Preprocessor/map/while/add/y", "op": "Const", "input": ["^module_apply_default/Preprocessor/map/while/Identity"], "attr": {"value": {"tensor": {"dtype": "DT_INT32", "tensorShape": {}}}, "dtype": {"type": "DT_INT32"}}}, {"name": "module_apply_default/Preprocessor/map/while/add_1/y", "op": "Const", "input": ["^module_apply_default/Preprocessor/map/while/Identity"], "attr": {"value": {"tensor": {"dtype": "DT_INT32", "tensorShape": {}}}, "dtype": {"type": "DT_INT32"}}}, {"name": "module_apply_default/Preprocessor/map/TensorArrayStack/TensorArraySizeV3", "op": "TensorArraySizeV3", "input": ["module_apply_default/Preprocessor/map/TensorArray_1", "module_apply_default/Preprocessor/map/while/Exit_2"]}, {"name": "module_apply_default/Preprocessor/map/TensorArrayStack_1/range", "op": "Range", "input": ["module_apply_default/Preprocessor/map/TensorArrayStack_1/range/start", "module_apply_default/Preprocessor/map/TensorArrayStack_1/TensorArraySizeV3", "module_apply_default/Preprocessor/map/TensorArrayStack_1/range/delta"], "attr": {"Tidx": {"type": "DT_INT32"}}}, {"name": "module_apply_default/Preprocessor/map/while/TensorArrayWrite_1/TensorArrayWriteV3", "op": "TensorArrayWriteV3", "input": ["module_apply_default/Preprocessor/map/while/TensorArrayWrite_1/TensorArrayWriteV3/Enter", "module_apply_default/Preprocessor/map/while/Switch_1:1", "module_apply_default/Preprocessor/map/while/ResizeImage/stack_1", "module_apply_default/Preprocessor/map/while/Switch_3:1"], "attr": {"T": {"type": "DT_INT32"}}}, {"name": "module_apply_default/Preprocessor/map/while/ResizeImage/resize/ExpandDims", "op": "ExpandDims", "input": ["module_apply_default/Preprocessor/map/while/TensorArrayReadV3", "module_apply_default/Preprocessor/map/while/ResizeImage/resize/ExpandDims/dim"], "attr": {"T": {"type": "DT_FLOAT"}, "Tdim": {"type": "DT_INT32"}}}, {"name": "module_apply_default/Preprocessor/map/while/add", "op": "Add", "input": ["module_apply_default/Preprocessor/map/while/Identity", "module_apply_default/Preprocessor/map/while/add/y"], "attr": {"T": {"type": "DT_INT32"}}}, {"name": "module_apply_default/Preprocessor/map/while/add_1", "op": "Add", "input": ["module_apply_default/Preprocessor/map/while/Switch_1:1", "module_apply_default/Preprocessor/map/while/add_1/y"], "attr": {"T": {"type": "DT_INT32"}}}, {"name": "module_apply_default/Preprocessor/map/TensorArrayStack/range", "op": "Range", "input": ["module_apply_default/Preprocessor/map/TensorArrayStack/range/start", "module_apply_default/Preprocessor/map/TensorArrayStack/TensorArraySizeV3", "module_apply_default/Preprocessor/map/TensorArrayStack/range/delta"], "attr": {"Tidx": {"type": "DT_INT32"}}}, {"name": "module_apply_default/Preprocessor/map/TensorArrayStack_1/TensorArrayGatherV3", "op": "TensorArrayGatherV3", "input": ["module_apply_default/Preprocessor/map/TensorArray_2", "module_apply_default/Preprocessor/map/TensorArrayStack_1/range", "module_apply_default/Preprocessor/map/while/Exit_3"], "attr": {"element_shape": {"shape": {"dim": [{"size": "3"}]}}, "dtype": {"type": "DT_INT32"}}}, {"name": "module_apply_default/Preprocessor/map/while/NextIteration_3", "op": "NextIteration", "input": ["module_apply_default/Preprocessor/map/while/TensorArrayWrite_1/TensorArrayWriteV3"], "attr": {"T": {"type": "DT_FLOAT"}}}, {"name": "module_apply_default/Preprocessor/map/while/ResizeImage/resize/ResizeBilinear", "op": "ResizeBilinear", "input": ["module_apply_default/Preprocessor/map/while/ResizeImage/resize/ExpandDims", "module_apply_default/Preprocessor/map/while/ResizeImage/stack"], "attr": {"align_corners": {"b": false}, "half_pixel_centers": {"b": false}, "T": {"type": "DT_FLOAT"}}}, {"name": "module_apply_default/Preprocessor/map/while/NextIteration", "op": "NextIteration", "input": ["module_apply_default/Preprocessor/map/while/add"], "attr": {"T": {"type": "DT_INT32"}}}, {"name": "module_apply_default/Preprocessor/map/while/NextIteration_1", "op": "NextIteration", "input": ["module_apply_default/Preprocessor/map/while/add_1"], "attr": {"T": {"type": "DT_INT32"}}}, {"name": "module_apply_default/Preprocessor/map/TensorArrayStack/TensorArrayGatherV3", "op": "TensorArrayGatherV3", "input": ["module_apply_default/Preprocessor/map/TensorArray_1", "module_apply_default/Preprocessor/map/TensorArrayStack/range", "module_apply_default/Preprocessor/map/while/Exit_2"], "attr": {"dtype": {"type": "DT_FLOAT"}, "element_shape": {"shape": {"dim": [{"size": "192"}, {"size": "192"}, {"size": "3"}]}}}}, {"name": "module_apply_default/Postprocessor/Cast", "op": "Cast", "input": ["module_apply_default/Preprocessor/map/TensorArrayStack_1/TensorArrayGatherV3"], "attr": {"DstT": {"type": "DT_FLOAT"}, "SrcT": {"type": "DT_INT32"}, "Truncate": {"b": false}}}, {"name": "module_apply_default/Preprocessor/map/while/ResizeImage/resize/Squeeze", "op": "Squeeze", "input": ["module_apply_default/Preprocessor/map/while/ResizeImage/resize/ResizeBilinear"], "attr": {"squeeze_dims": {"list": {"i": ["0"]}}, "T": {"type": "DT_FLOAT"}}}, {"name": "module_apply_default/Preprocessor/mul", "op": "Mul", "input": ["module_apply_default/Preprocessor/mul/x", "module_apply_default/Preprocessor/map/TensorArrayStack/TensorArrayGatherV3"], "attr": {"T": {"type": "DT_FLOAT"}}}, {"name": "module_apply_default/Postprocessor/unstack", "op": "Unpack", "input": ["module_apply_default/Postprocessor/Cast"], "attr": {"num": {"i": "3"}, "axis": {"i": "1"}, "T": {"type": "DT_FLOAT"}}}, {"name": "module_apply_default/Preprocessor/map/while/TensorArrayWrite/TensorArrayWriteV3", "op": "TensorArrayWriteV3", "input": ["module_apply_default/Preprocessor/map/while/TensorArrayWrite/TensorArrayWriteV3/Enter", "module_apply_default/Preprocessor/map/while/Switch_1:1", "module_apply_default/Preprocessor/map/while/ResizeImage/resize/Squeeze", "module_apply_default/Preprocessor/map/while/Switch_2:1"], "attr": {"T": {"type": "DT_FLOAT"}}}, {"name": "module_apply_default/Preprocessor/sub", "op": "Sub", "input": ["module_apply_default/Preprocessor/mul", "module_apply_default/Preprocessor/sub/y"], "attr": {"T": {"type": "DT_FLOAT"}}}, {"name": "module_apply_default/Postprocessor/zeros_like", "op": "ZerosLike", "input": ["module_apply_default/Postprocessor/unstack"], "attr": {"T": {"type": "DT_FLOAT"}}}, {"name": "module_apply_default/Postprocessor/div", "op": "Mul", "input": ["module_apply_default/Postprocessor/unstack", "ConstantFolding/module_apply_default/Postprocessor/div_recip"], "attr": {"T": {"type": "DT_FLOAT"}}}, {"name": "module_apply_default/Postprocessor/zeros_like_1", "op": "ZerosLike", "input": ["module_apply_default/Postprocessor/unstack:1"], "attr": {"T": {"type": "DT_FLOAT"}}}, {"name": "module_apply_default/Postprocessor/div_1", "op": "Mul", "input": ["module_apply_default/Postprocessor/unstack:1", "ConstantFolding/module_apply_default/Postprocessor/div_1_recip"], "attr": {"T": {"type": "DT_FLOAT"}}}, {"name": "module_apply_default/Preprocessor/map/while/NextIteration_2", "op": "NextIteration", "input": ["module_apply_default/Preprocessor/map/while/TensorArrayWrite/TensorArrayWriteV3"], "attr": {"T": {"type": "DT_FLOAT"}}}, {"name": "module_apply_default/FeatureExtractor/MobilenetV2/Conv/Conv2D_Fold", "op": "Conv2D", "input": ["module_apply_default/Preprocessor/sub", "module_apply_default/FeatureExtractor/MobilenetV2/Conv/weights_quant/FakeQuantWithMinMaxVars"], "device": "/device:CPU:0", "attr": {"explicit_paddings": {"list": {}}, "strides": {"list": {"i": ["1", "2", "2", "1"]}}, "data_format": {"s": "TkhXQw=="}, "dilations": {"list": {"i": ["1", "1", "1", "1"]}}, "padding": {"s": "U0FNRQ=="}, "use_cudnn_on_gpu": {"b": true}, "T": {"type": "DT_FLOAT"}}}, {"name": "module_apply_default/Postprocessor/stack_1", "op": "Pack", "input": ["module_apply_default/Postprocessor/zeros_like", "module_apply_default/Postprocessor/zeros_like_1", "module_apply_default/Postprocessor/div", "module_apply_default/Postprocessor/div_1"], "attr": {"N": {"i": "4"}, "axis": {"i": "1"}, "T": {"type": "DT_FLOAT"}}}, {"name": "module_apply_default/FeatureExtractor/MobilenetV2/Conv/add_fold", "op": "Add", "input": ["module_apply_default/FeatureExtractor/MobilenetV2/Conv/Conv2D_Fold", "module_apply_default/FeatureExtractor/MobilenetV2/Conv/BatchNorm_Fold/bias"], "attr": {"T": {"type": "DT_FLOAT"}}}, {"name": "module_apply_default/Postprocessor/BatchMultiClassNonMaxSuppression/map/TensorArrayUnstack_3/Shape", "op": "Shape", "input": ["module_apply_default/Postprocessor/stack_1"], "attr": {"T": {"type": "DT_FLOAT"}, "out_type": {"type": "DT_INT32"}}}, {"name": "module_apply_default/FeatureExtractor/MobilenetV2/Conv/Relu6", "op": "Relu6", "input": ["module_apply_default/FeatureExtractor/MobilenetV2/Conv/add_fold"], "attr": {"T": {"type": "DT_FLOAT"}}}, {"name": "module_apply_default/Postprocessor/BatchMultiClassNonMaxSuppression/map/TensorArrayUnstack_3/strided_slice", "op": "StridedSlice", "input": ["module_apply_default/Postprocessor/BatchMultiClassNonMaxSuppression/map/TensorArrayUnstack_3/Shape", "module_apply_default/Postprocessor/BatchMultiClassNonMaxSuppression/map/TensorArrayUnstack_3/strided_slice/stack", "module_apply_default/Postprocessor/BatchMultiClassNonMaxSuppression/map/TensorArrayUnstack_3/strided_slice/stack_1", "module_apply_default/Postprocessor/BatchMultiClassNonMaxSuppression/map/TensorArrayUnstack_3/strided_slice/stack_2"], "attr": {"begin_mask": {"i": "0"}, "T": {"type": "DT_INT32"}, "new_axis_mask": {"i": "0"}, "ellipsis_mask": {"i": "0"}, "end_mask": {"i": "0"}, "Index": {"type": "DT_INT32"}, "shrink_axis_mask": {"i": "1"}}}, {"name": "module_apply_default/FeatureExtractor/MobilenetV2/Conv/act_quant/FakeQuantWithMinMaxVars", "op": "FakeQuantWithMinMaxVars", "input": ["module_apply_default/FeatureExtractor/MobilenetV2/Conv/Relu6", "module_apply_default/FeatureExtractor/MobilenetV2/Conv/act_quant/min", "module_apply_default/FeatureExtractor/MobilenetV2/Conv/act_quant/max"], "attr": {"num_bits": {"i": "8"}, "narrow_range": {"b": false}}}, {"name": "module_apply_default/Postprocessor/BatchMultiClassNonMaxSuppression/map/TensorArrayUnstack_3/range", "op": "Range", "input": ["module_apply_default/Postprocessor/BatchMultiClassNonMaxSuppression/map/TensorArrayUnstack_3/range/start", "module_apply_default/Postprocessor/BatchMultiClassNonMaxSuppression/map/TensorArrayUnstack_3/strided_slice", "module_apply_default/Postprocessor/BatchMultiClassNonMaxSuppression/map/TensorArrayUnstack_3/range/delta"], "attr": {"Tidx": {"type": "DT_INT32"}}}, {"name": "module_apply_default/FeatureExtractor/MobilenetV2/expanded_conv/depthwise/depthwise_Fold", "op": "DepthwiseConv2dNative", "input": ["module_apply_default/FeatureExtractor/MobilenetV2/Conv/act_quant/FakeQuantWithMinMaxVars", "module_apply_default/FeatureExtractor/MobilenetV2/expanded_conv/depthwise/weights_quant/FakeQuantWithMinMaxVars"], "attr": {"explicit_paddings": {"list": {}}, "strides": {"list": {"i": ["1", "1", "1", "1"]}}, "data_f…
ation_bypass_quant/max", "shape": [], "dtype": "float32", "quantization": {"dtype": "uint8", "min": 16.258939743041992, "scale": 1.0, "original_dtype": "float32"}}, {"name": "module_apply_default/FeatureExtractor/MobilenetV2/expanded_conv_10/expand/weights_quant/FakeQuantWithMinMaxVars", "shape": [1, 1, 48, 288], "dtype": "float32", "quantization": {"dtype": "uint8", "min": -0.21833852973638795, "scale": 0.0017896600798064587, "original_dtype": "float32"}}, {"name": "module_apply_default/FeatureExtractor/MobilenetV2/expanded_conv_10/expand/BatchNorm_Fold/bias", "shape": [288], "dtype": "float32", "quantization": {"dtype": "uint8", "min": -0.7103081759284524, "scale": 0.007248042611514821, "original_dtype": "float32"}}, {"name": "module_apply_default/FeatureExtractor/MobilenetV2/expanded_conv_10/expand/act_quant/min", "shape": [], "dtype": "float32", "quantization": {"dtype": "uint8", "min": 0.0, "scale": 1.0, "original_dtype": "float32"}}, {"name": "module_apply_default/FeatureExtractor/MobilenetV2/expanded_conv_10/expand/act_quant/max", "shape": [], "dtype": "float32", "quantization": {"dtype": "uint8", "min": 5.999761581420898, "scale": 1.0, "original_dtype": "float32"}}, {"name": "module_apply_default/FeatureExtractor/MobilenetV2/expanded_conv_10/depthwise/weights_quant/FakeQuantWithMinMaxVars", "shape": [3, 3, 288, 1], "dtype": "float32", "quantization": {"dtype": "uint8", "min": -2.223552894592285, "scale": 0.018685318441951974, "original_dtype": "float32"}}, {"name": "module_apply_default/FeatureExtractor/MobilenetV2/expanded_conv_10/depthwise/BatchNorm_Fold/bias", "shape": [288], "dtype": "float32", "quantization": {"dtype": "uint8", "min": -2.0740278692806466, "scale": 0.023839400796329274, "original_dtype": "float32"}}, {"name": "module_apply_default/FeatureExtractor/MobilenetV2/expanded_conv_10/depthwise/act_quant/min", "shape": [], "dtype": "float32", "quantization": {"dtype": "uint8", "min": 0.0, "scale": 1.0, "original_dtype": "float32"}}, {"name": "module_apply_default/FeatureExtractor/MobilenetV2/expanded_conv_10/depthwise/act_quant/max", "shape": [], "dtype": "float32", "quantization": {"dtype": "uint8", "min": 5.999761581420898, "scale": 1.0, "original_dtype": "float32"}}, {"name": "module_apply_default/FeatureExtractor/MobilenetV2/expanded_conv_10/project/weights_quant/FakeQuantWithMinMaxVars", "shape": [1, 1, 288, 72], "dtype": "float32", "quantization": {"dtype": "uint8", "min": -0.40843806500528373, "scale": 0.0030480452612334607, "original_dtype": "float32"}}, {"name": "module_apply_default/FeatureExtractor/MobilenetV2/expanded_conv_10/project/BatchNorm_Fold/bias", "shape": [72], "dtype": "float32", "quantization": {"dtype": "uint8", "min": -1.891178327448228, "scale": 0.013508416624630199, "original_dtype": "float32"}}, {"name": "module_apply_default/FeatureExtractor/MobilenetV2/expanded_conv_10/project/act_quant/min", "shape": [], "dtype": "float32", "quantization": {"dtype": "uint8", "min": -5.766350269317627, "scale": 1.0, "original_dtype": "float32"}}, {"name": "module_apply_default/FeatureExtractor/MobilenetV2/expanded_conv_10/project/act_quant/max", "shape": [], "dtype": "float32", "quantization": {"dtype": "uint8", "min": 6.229194164276123, "scale": 1.0, "original_dtype": "float32"}}, {"name": "module_apply_default/FeatureExtractor/MobilenetV2/expanded_conv_11/post_activation_bypass_quant/min", "shape": [], "dtype": "float32", "quantization": {"dtype": "uint8", "min": -9.32508659362793, "scale": 1.0, "original_dtype": "float32"}}, {"name": "module_apply_default/FeatureExtractor/MobilenetV2/expanded_conv_11/post_activation_bypass_quant/max", "shape": [], "dtype": "float32", "quantization": {"dtype": "uint8", "min": 8.569361686706543, "scale": 1.0, "original_dtype": "float32"}}, {"name": "module_apply_default/FeatureExtractor/MobilenetV2/expanded_conv_12/post_activation_bypass_quant/min", "shape": [], "dtype": "float32", "quantization": {"dtype": "uint8", "min": -17.96681022644043, "scale": 1.0, "original_dtype": "float32"}}, {"name": "module_apply_default/FeatureExtractor/MobilenetV2/expanded_conv_12/post_activation_bypass_quant/max", "shape": [], "dtype": "float32", "quantization": {"dtype": "uint8", "min": 14.200578689575195, "scale": 1.0, "original_dtype": "float32"}}, {"name": "module_apply_default/FeatureExtractor/MobilenetV2/expanded_conv_13/expand/weights_quant/FakeQuantWithMinMaxVars", "shape": [1, 1, 72, 432], "dtype": "float32", "quantization": {"dtype": "uint8", "min": -0.20157329825793996, "scale": 0.0015997880814122218, "original_dtype": "float32"}}, {"name": "module_apply_default/FeatureExtractor/MobilenetV2/expanded_conv_13/expand/BatchNorm_Fold/bias", "shape": [432], "dtype": "float32", "quantization": {"dtype": "uint8", "min": -1.6589792662975835, "scale": 0.010368620414359897, "original_dtype": "float32"}}, {"name": "module_apply_default/FeatureExtractor/MobilenetV2/expanded_conv_13/expand/act_quant/min", "shape": [], "dtype": "float32", "quantization": {"dtype": "uint8", "min": 0.0, "scale": 1.0, "original_dtype": "float32"}}, {"name": "module_apply_default/FeatureExtractor/MobilenetV2/expanded_conv_13/expand/act_quant/max", "shape": [], "dtype": "float32", "quantization": {"dtype": "uint8", "min": 5.999761581420898, "scale": 1.0, "original_dtype": "float32"}}, {"name": "module_apply_default/FeatureExtractor/MobilenetV2/expanded_conv_13/depthwise/weights_quant/FakeQuantWithMinMaxVars", "shape": [3, 3, 432, 1], "dtype": "float32", "quantization": {"dtype": "uint8", "min": -6.706237568574793, "scale": 0.05158644283519072, "original_dtype": "float32"}}, {"name": "module_apply_default/FeatureExtractor/MobilenetV2/expanded_conv_13/depthwise/BatchNorm_Fold/bias", "shape": [432], "dtype": "float32", "quantization": {"dtype": "uint8", "min": -3.2047137774673162, "scale": 0.024095592311784333, "original_dtype": "float32"}}, {"name": "module_apply_default/FeatureExtractor/MobilenetV2/expanded_conv_13/depthwise/act_quant/min", "shape": [], "dtype": "float32", "quantization": {"dtype": "uint8", "min": 0.0, "scale": 1.0, "original_dtype": "float32"}}, {"name": "module_apply_default/FeatureExtractor/MobilenetV2/expanded_conv_13/depthwise/act_quant/max", "shape": [], "dtype": "float32", "quantization": {"dtype": "uint8", "min": 5.999761581420898, "scale": 1.0, "original_dtype": "float32"}}, {"name": "module_apply_default/FeatureExtractor/MobilenetV2/expanded_conv_13/project/weights_quant/FakeQuantWithMinMaxVars", "shape": [1, 1, 432, 120], "dtype": "float32", "quantization": {"dtype": "uint8", "min": -0.25364984367408006, "scale": 0.002079097079295738, "original_dtype": "float32"}}, {"name": "module_apply_default/FeatureExtractor/MobilenetV2/expanded_conv_13/project/BatchNorm_Fold/bias", "shape": [120], "dtype": "float32", "quantization": {"dtype": "uint8", "min": -1.404401086358463, "scale": 0.011511484314413631, "original_dtype": "float32"}}, {"name": "module_apply_default/FeatureExtractor/MobilenetV2/expanded_conv_13/project/act_quant/min", "shape": [], "dtype": "float32", "quantization": {"dtype": "uint8", "min": -7.581973552703857, "scale": 1.0, "original_dtype": "float32"}}, {"name": "module_apply_default/FeatureExtractor/MobilenetV2/expanded_conv_13/project/act_quant/max", "shape": [], "dtype": "float32", "quantization": {"dtype": "uint8", "min": 6.210947036743164, "scale": 1.0, "original_dtype": "float32"}}, {"name": "module_apply_default/FeatureExtractor/MobilenetV2/expanded_conv_14/post_activation_bypass_quant/min", "shape": [], "dtype": "float32", "quantization": {"dtype": "uint8", "min": -8.273069381713867, "scale": 1.0, "original_dtype": "float32"}}, {"name": "module_apply_default/FeatureExtractor/MobilenetV2/expanded_conv_14/post_activation_bypass_quant/max", "shape": [], "dtype": "float32", "quantization": {"dtype": "uint8", "min": 7.959397315979004, "scale": 1.0, "original_dtype": "float32"}}, {"name": "module_apply_default/FeatureExtractor/MobilenetV2/expanded_conv_15/post_activation_bypass_quant/min", "shape": [], "dtype": "float32", "quantization": {"dtype": "uint8", "min": -10.612614631652832, "scale": 1.0, "original_dtype": "float32"}}, {"name": "module_apply_default/FeatureExtractor/MobilenetV2/expanded_conv_15/post_activation_bypass_quant/max", "shape": [], "dtype": "float32", "quantization": {"dtype": "uint8", "min": 12.186090469360352, "scale": 1.0, "original_dtype": "float32"}}, {"name": "module_apply_default/FeatureExtractor/MobilenetV2/expanded_conv_16/expand/weights_quant/FakeQuantWithMinMaxVars", "shape": [1, 1, 120, 720], "dtype": "float32", "quantization": {"dtype": "uint8", "min": -0.2393922244801241, "scale": 0.0018702517537509695, "original_dtype": "float32"}}, {"name": "module_apply_default/FeatureExtractor/MobilenetV2/expanded_conv_16/expand/BatchNorm_Fold/bias", "shape": [720], "dtype": "float32", "quantization": {"dtype": "uint8", "min": -0.8643617938546573, "scale": 0.005801085864796358, "original_dtype": "float32"}}, {"name": "module_apply_default/FeatureExtractor/MobilenetV2/expanded_conv_16/expand/act_quant/min", "shape": [], "dtype": "float32", "quantization": {"dtype": "uint8", "min": 0.0, "scale": 1.0, "original_dtype": "float32"}}, {"name": "module_apply_default/FeatureExtractor/MobilenetV2/expanded_conv_16/expand/act_quant/max", "shape": [], "dtype": "float32", "quantization": {"dtype": "uint8", "min": 5.999761581420898, "scale": 1.0, "original_dtype": "float32"}}, {"name": "module_apply_default/FeatureExtractor/MobilenetV2/expanded_conv_16/depthwise/weights_quant/FakeQuantWithMinMaxVars", "shape": [3, 3, 720, 1], "dtype": "float32", "quantization": {"dtype": "uint8", "min": -3.2053373000201058, "scale": 0.026711144166834216, "original_dtype": "float32"}}, {"name": "module_apply_default/FeatureExtractor/MobilenetV2/expanded_conv_16/depthwise/BatchNorm_Fold/bias", "shape": [720], "dtype": "float32", "quantization": {"dtype": "uint8", "min": -1.6425800248688343, "scale": 0.013575041527841605, "original_dtype": "float32"}}, {"name": "module_apply_default/FeatureExtractor/MobilenetV2/expanded_conv_16/depthwise/act_quant/min", "shape": [], "dtype": "float32", "quantization": {"dtype": "uint8", "min": 0.0, "scale": 1.0, "original_dtype": "float32"}}, {"name": "module_apply_default/FeatureExtractor/MobilenetV2/expanded_conv_16/depthwise/act_quant/max", "shape": [], "dtype": "float32", "quantization": {"dtype": "uint8", "min": 5.999761581420898, "scale": 1.0, "original_dtype": "float32"}}, {"name": "module_apply_default/FeatureExtractor/MobilenetV2/expanded_conv_16/project/weights_quant/FakeQuantWithMinMaxVars", "shape": [1, 1, 720, 240], "dtype": "float32", "quantization": {"dtype": "uint8", "min": -0.2522970415797888, "scale": 0.002232717182122025, "original_dtype": "float32"}}, {"name": "module_apply_default/FeatureExtractor/MobilenetV2/expanded_conv_16/project/BatchNorm_Fold/bias", "shape": [240], "dtype": "float32", "quantization": {"dtype": "uint8", "min": -2.5678839356291525, "scale": 0.01847398514841117, "original_dtype": "float32"}}, {"name": "module_apply_default/FeatureExtractor/MobilenetV2/expanded_conv_16/project/act_quant/min", "shape": [], "dtype": "float32", "quantization": {"dtype": "uint8", "min": -7.841140270233154, "scale": 1.0, "original_dtype": "float32"}}, {"name": "module_apply_default/FeatureExtractor/MobilenetV2/expanded_conv_16/project/act_quant/max", "shape": [], "dtype": "float32", "quantization": {"dtype": "uint8", "min": 7.478309154510498, "scale": 1.0, "original_dtype": "float32"}}, {"name": "module_apply_default/FeatureExtractor/MobilenetV2/Conv_1/weights_quant/FakeQuantWithMinMaxVars", "shape": [1, 1, 240, 960], "dtype": "float32", "quantization": {"dtype": "uint8", "min": -0.2237341700815687, "scale": 0.001707894428103578, "original_dtype": "float32"}}, {"name": "module_apply_default/FeatureExtractor/MobilenetV2/Conv_1/BatchNorm_Fold/bias", "shape": [960], "dtype": "float32", "quantization": {"dtype": "uint8", "min": -1.030535280938242, "scale": 0.006779837374593698, "original_dtype": "float32"}}, {"name": "module_apply_default/FeatureExtractor/MobilenetV2/Conv_1/act_quant/min", "shape": [], "dtype": "float32", "quantization": {"dtype": "uint8", "min": 0.0, "scale": 1.0, "original_dtype": "float32"}}, {"name": "module_apply_default/FeatureExtractor/MobilenetV2/Conv_1/act_quant/max", "shape": [], "dtype": "float32", "quantization": {"dtype": "uint8", "min": 5.999761581420898, "scale": 1.0, "original_dtype": "float32"}}, {"name": "module_apply_default/FeatureExtractor/MobilenetV2/layer_19_1_Conv2d_2_1x1_192/weights_quant/FakeQuantWithMinMaxVars", "shape": [1, 1, 960, 192], "dtype": "float32", "quantization": {"dtype": "uint8", "min": -0.3340962704490213, "scale": 0.002531032351886525, "original_dtype": "float32"}}, {"name": "module_apply_default/FeatureExtractor/MobilenetV2/layer_19_1_Conv2d_2_1x1_192/BatchNorm_Fold/bias", "shape": [192], "dtype": "float32", "quantization": {"dtype": "uint8", "min": -1.0413183558220958, "scale": 0.009054942224539963, "original_dtype": "float32"}}, {"name": "module_apply_default/FeatureExtractor/MobilenetV2/layer_19_1_Conv2d_2_1x1_192/act_quant/min", "shape": [], "dtype": "float32", "quantization": {"dtype": "uint8", "min": 0.0, "scale": 1.0, "original_dtype": "float32"}}, {"name": "module_apply_default/FeatureExtractor/MobilenetV2/layer_19_1_Conv2d_2_1x1_192/act_quant/max", "shape": [], "dtype": "float32", "quantization": {"dtype": "uint8", "min": 5.999761581420898, "scale": 1.0, "original_dtype": "float32"}}, {"name": "module_apply_default/FeatureExtractor/MobilenetV2/layer_19_2_Conv2d_2_3x3_s2_384_depthwise/weights_quant/FakeQuantWithMinMaxVars", "shape": [3, 3, 192, 1], "dtype": "float32", "quantization": {"dtype": "uint8", "min": -1.7512815989700017, "scale": 0.021357092670365875, "original_dtype": "float32"}}, {"name": "module_apply_default/FeatureExtractor/MobilenetV2/layer_19_2_Conv2d_2_3x3_s2_384_depthwise/BatchNorm_Fold/bias", "shape": [192], "dtype": "float32", "quantization": {"dtype": "uint8", "min": -1.0145076232797958, "scale": 0.013526768310397279, "original_dtype": "float32"}}, {"name": "module_apply_default/FeatureExtractor/MobilenetV2/layer_19_2_Conv2d_2_3x3_s2_384_depthwise/act_quant/min", "shape": [], "dtype": "float32", "quantization": {"dtype": "uint8", "min": 0.0, "scale": 1.0, "original_dtype": "float32"}}, {"name": "module_apply_default/FeatureExtractor/MobilenetV2/layer_19_2_Conv2d_2_3x3_s2_384_depthwise/act_quant/max", "shape": [], "dtype": "float32", "quantization": {"dtype": "uint8", "min": 5.9754791259765625, "scale": 1.0, "original_dtype": "float32"}}, {"name": "module_apply_default/FeatureExtractor/MobilenetV2/layer_19_2_Conv2d_2_3x3_s2_384/weights_quant/FakeQuantWithMinMaxVars", "shape": [1, 1, 192, 384], "dtype": "float32", "quantization": {"dtype": "uint8", "min": -0.6370134704253252, "scale": 0.0047186182994468535, "original_dtype": "float32"}}, {"name": "module_apply_default/FeatureExtractor/MobilenetV2/layer_19_2_Conv2d_2_3x3_s2_384/BatchNorm_Fold/bias", "shape": [384], "dtype": "float32", "quantization": {"dtype": "uint8", "min": -2.152373860864078, "scale": 0.017218990886912627, "original_dtype": "float32"}}, {"name": "module_apply_default/FeatureExtractor/MobilenetV2/layer_19_2_Conv2d_2_3x3_s2_384/act_quant/min", "shape": [], "dtype": "float32", "quantization": {"dtype": "uint8", "min": 0.0, "scale": 1.0, "original_dtype": "float32"}}, {"name": "module_apply_default/FeatureExtractor/MobilenetV2/layer_19_2_Conv2d_2_3x3_s2_384/act_quant/max", "shape": [], "dtype": "float32", "quantization": {"dtype": "uint8", "min": 5.511048793792725, "scale": 1.0, "original_dtype": "float32"}}, {"name": "module_apply_default/FeatureExtractor/MobilenetV2/layer_19_1_Conv2d_3_1x1_96/weights_quant/FakeQuantWithMinMaxVars", "shape": [1, 1, 384, 96], "dtype": "float32", "quantization": {"dtype": "uint8", "min": -0.3961474801979813, "scale": 0.0027320515875722848, "original_dtype": "float32"}}, {"name": "module_apply_default/FeatureExtractor/MobilenetV2/layer_19_1_Conv2d_3_1x1_96/BatchNorm_Fold/bias", "shape": [96], "dtype": "float32", "quantization": {"dtype": "uint8", "min": -1.2998356445162904, "scale": 0.009998735727048388, "original_dtype": "float32"}}, {"name": "module_apply_default/FeatureExtractor/MobilenetV2/layer_19_1_Conv2d_3_1x1_96/act_quant/min", "shape": [], "dtype": "float32", "quantization": {"dtype": "uint8", "min": 0.0, "scale": 1.0, "original_dtype": "float32"}}, {"name": "module_apply_default/FeatureExtractor/MobilenetV2/layer_19_1_Conv2d_3_1x1_96/act_quant/max", "shape": [], "dtype": "float32", "quantization": {"dtype": "uint8", "min": 4.9741668701171875, "scale": 1.0, "original_dtype": "float32"}}, {"name": "module_apply_default/FeatureExtractor/MobilenetV2/layer_19_2_Conv2d_3_3x3_s2_192_depthwise/weights_quant/FakeQuantWithMinMaxVars", "shape": [3, 3, 96, 1], "dtype": "float32", "quantization": {"dtype": "uint8", "min": -2.0225612976971794, "scale": 0.014981935538497625, "original_dtype": "float32"}}, {"name": "module_apply_default/FeatureExtractor/MobilenetV2/layer_19_2_Conv2d_3_3x3_s2_192_depthwise/BatchNorm_Fold/bias", "shape": [96], "dtype": "float32", "quantization": {"dtype": "uint8", "min": -0.610609833165711, "scale": 0.010009997265011656, "original_dtype": "float32"}}, {"name": "module_apply_default/FeatureExtractor/MobilenetV2/layer_19_2_Conv2d_3_3x3_s2_192_depthwise/act_quant/min", "shape": [], "dtype": "float32", "quantization": {"dtype": "uint8", "min": 0.0, "scale": 1.0, "original_dtype": "float32"}}, {"name": "module_apply_default/FeatureExtractor/MobilenetV2/layer_19_2_Conv2d_3_3x3_s2_192_depthwise/act_quant/max", "shape": [], "dtype": "float32", "quantization": {"dtype": "uint8", "min": 5.127432823181152, "scale": 1.0, "original_dtype": "float32"}}, {"name": "module_apply_default/FeatureExtractor/MobilenetV2/layer_19_2_Conv2d_3_3x3_s2_192/weights_quant/FakeQuantWithMinMaxVars", "shape": [1, 1, 96, 192], "dtype": "float32", "quantization": {"dtype": "uint8", "min": -0.789543405233645, "scale": 0.00805656535952699, "original_dtype": "float32"}}, {"name": "module_apply_default/FeatureExtractor/MobilenetV2/layer_19_2_Conv2d_3_3x3_s2_192/BatchNorm_Fold/bias", "shape": [192], "dtype": "float32", "quantization": {"dtype": "uint8", "min": -1.7106480607799457, "scale": 0.015694018906238033, "original_dtype": "float32"}}, {"name": "module_apply_default/FeatureExtractor/MobilenetV2/layer_19_2_Conv2d_3_3x3_s2_192/act_quant/min", "shape": [], "dtype": "float32", "quantization": {"dtype": "uint8", "min": 0.0, "scale": 1.0, "original_dtype": "float32"}}, {"name": "module_apply_default/FeatureExtractor/MobilenetV2/layer_19_2_Conv2d_3_3x3_s2_192/act_quant/max", "shape": [], "dtype": "float32", "quantization": {"dtype": "uint8", "min": 4.558506011962891, "scale": 1.0, "original_dtype": "float32"}}, {"name": "module_apply_default/FeatureExtractor/MobilenetV2/layer_19_1_Conv2d_4_1x1_96/weights_quant/FakeQuantWithMinMaxVars", "shape": [1, 1, 192, 96], "dtype": "float32", "quantization": {"dtype": "uint8", "min": -0.3733010404250201, "scale": 0.004785910774679745, "original_dtype": "float32"}}, {"name": "module_apply_default/FeatureExtractor/MobilenetV2/layer_19_1_Conv2d_4_1x1_96/BatchNorm_Fold/bias", "shape": [96], "dtype": "float32", "quantization": {"dtype": "uint8", "min": -2.4566034719055776, "scale": 0.015258406657798618, "original_dtype": "float32"}}, {"name": "module_apply_default/FeatureExtractor/MobilenetV2/layer_19_1_Conv2d_4_1x1_96/act_quant/min", "shape": [], "dtype": "float32", "quantization": {"dtype": "uint8", "min": 0.0, "scale": 1.0, "original_dtype": "float32"}}, {"name": "module_apply_default/FeatureExtractor/MobilenetV2/layer_19_1_Conv2d_4_1x1_96/act_quant/max", "shape": [], "dtype": "float32", "quantization": {"dtype": "uint8", "min": 5.99311637878418, "scale": 1.0, "original_dtype": "float32"}}, {"name": "module_apply_default/FeatureExtractor/MobilenetV2/layer_19_2_Conv2d_4_3x3_s2_192_depthwise/weights_quant/FakeQuantWithMinMaxVars", "shape": [3, 3, 96, 1], "dtype": "float32", "quantization": {"dtype": "uint8", "min": -10.579220431458717, "scale": 0.05844873166551777, "original_dtype": "float32"}}, {"name": "module_apply_default/FeatureExtractor/MobilenetV2/layer_19_2_Conv2d_4_3x3_s2_192_depthwise/BatchNorm_Fold/bias", "shape": [96], "dtype": "float32", "quantization": {"dtype": "uint8", "min": -3.4969461478439037, "scale": 0.021855913424024397, "original_dtype": "float32"}}, {"name": "module_apply_default/FeatureExtractor/MobilenetV2/layer_19_2_Conv2d_4_3x3_s2_192_depthwise/act_quant/min", "shape": [], "dtype": "float32", "quantization": {"dtype": "uint8", "min": 0.0, "scale": 1.0, "original_dtype": "float32"}}, {"name": "module_apply_default/FeatureExtractor/MobilenetV2/layer_19_2_Conv2d_4_3x3_s2_192_depthwise/act_quant/max", "shape": [], "dtype": "float32", "quantization": {"dtype": "uint8", "min": 2.7143332958221436, "scale": 1.0, "original_dtype": "float32"}}, {"name": "module_apply_default/FeatureExtractor/MobilenetV2/layer_19_2_Conv2d_4_3x3_s2_192/weights_quant/FakeQuantWithMinMaxVars", "shape": [1, 1, 96, 192], "dtype": "float32", "quantization": {"dtype": "uint8", "min": -1.7810589958639707, "scale": 0.011417044845281863, "original_dtype": "float32"}}, {"name": "module_apply_default/FeatureExtractor/MobilenetV2/layer_19_2_Conv2d_4_3x3_s2_192/BatchNorm_Fold/bias", "shape": [192], "dtype": "float32", "quantization": {"dtype": "uint8", "min": -1.6404513359069826, "scale": 0.01224217414855957, "original_dtype": "float32"}}, {"name": "module_apply_default/FeatureExtractor/MobilenetV2/layer_19_2_Conv2d_4_3x3_s2_192/act_quant/min", "shape": [], "dtype": "float32", "quantization": {"dtype": "uint8", "min": 0.0, "scale": 1.0, "original_dtype": "float32"}}, {"name": "module_apply_default/FeatureExtractor/MobilenetV2/layer_19_2_Conv2d_4_3x3_s2_192/act_quant/max", "shape": [], "dtype": "float32", "quantization": {"dtype": "uint8", "min": 3.188202381134033, "scale": 1.0, "original_dtype": "float32"}}, {"name": "module_apply_default/FeatureExtractor/MobilenetV2/layer_19_1_Conv2d_5_1x1_48/weights_quant/FakeQuantWithMinMaxVars", "shape": [1, 1, 192, 48], "dtype": "float32", "quantization": {"dtype": "uint8", "min": -0.3323572560852649, "scale": 0.002865148759355732, "original_dtype": "float32"}}, {"name": "module_apply_default/FeatureExtractor/MobilenetV2/layer_19_1_Conv2d_5_1x1_48/BatchNorm_Fold/bias", "shape": [48], "dtype": "float32", "quantization": {"dtype": "uint8", "min": -0.9887013657420289, "scale": 0.008597403180365469, "original_dtype": "float32"}}, {"name": "module_apply_default/FeatureExtractor/MobilenetV2/layer_19_1_Conv2d_5_1x1_48/act_quant/min", "shape": [], "dtype": "float32", "quantization": {"dtype": "uint8", "min": 0.0, "scale": 1.0, "original_dtype": "float32"}}, {"name": "module_apply_default/FeatureExtractor/MobilenetV2/layer_19_1_Conv2d_5_1x1_48/act_quant/max", "shape": [], "dtype": "float32", "quantization": {"dtype": "uint8", "min": 5.9871063232421875, "scale": 1.0, "original_dtype": "float32"}}, {"name": "module_apply_default/FeatureExtractor/MobilenetV2/layer_19_2_Conv2d_5_3x3_s2_96_depthwise/weights_quant/FakeQuantWithMinMaxVars", "shape": [3, 3, 48, 1], "dtype": "float32", "quantization": {"dtype": "uint8", "min": -0.9326645121854894, "scale": 0.05829153201159309, "original_dtype": "float32"}}, {"name": "module_apply_default/FeatureExtractor/MobilenetV2/layer_19_2_Conv2d_5_3x3_s2_96_depthwise/BatchNorm_Fold/bias", "shape": [48], "dtype": "float32", "quantization": {"dtype": "uint8", "min": -13.930253561805277, "scale": 0.059277674731086284, "original_dtype": "float32"}}, {"name": "module_apply_default/FeatureExtractor/MobilenetV2/layer_19_2_Conv2d_5_3x3_s2_96_depthwise/act_quant/min", "shape": [], "dtype": "float32", "quantization": {"dtype": "uint8", "min": 0.0, "scale": 1.0, "original_dtype": "float32"}}, {"name": "module_apply_default/FeatureExtractor/MobilenetV2/layer_19_2_Conv2d_5_3x3_s2_96_depthwise/act_quant/max", "shape": [], "dtype": "float32", "quantization": {"dtype": "uint8", "min": 1.4646857976913452, "scale": 1.0, "original_dtype": "float32"}}, {"name": "module_apply_default/FeatureExtractor/MobilenetV2/layer_19_2_Conv2d_5_3x3_s2_96/weights_quant/FakeQuantWithMinMaxVars", "shape": [1, 1, 48, 96], "dtype": "float32", "quantization": {"dtype": "uint8", "min": -2.6029204088098865, "scale": 0.021161954543169808, "original_dtype": "float32"}}, {"name": "module_apply_default/FeatureExtractor/MobilenetV2/layer_19_2_Conv2d_5_3x3_s2_96/BatchNorm_Fold/bias", "shape": [96], "dtype": "float32", "quantization": {"dtype": "uint8", "min": -2.9840727058111454, "scale": 0.024661757899265665, "original_dtype": "float32"}}, {"name": "module_apply_default/FeatureExtractor/MobilenetV2/layer_19_2_Conv2d_5_3x3_s2_96/act_quant/min", "shape": [], "dtype": "float32", "quantization": {"dtype": "uint8", "min": 0.0, "scale": 1.0, "original_dtype": "float32"}}, {"name": "module_apply_default/FeatureExtractor/MobilenetV2/layer_19_2_Conv2d_5_3x3_s2_96/act_quant/max", "shape": [], "dtype": "float32", "quantization": {"dtype": "uint8", "min": 3.1406118869781494, "scale": 1.0, "original_dtype": "float32"}}, {"name": "module_apply_default/BoxPredictor_5/strided_slice/stack", "shape": [1], "dtype": "int32"}, {"name": "module_apply_default/BoxPredictor_5/strided_slice/stack_1", "shape": [1], "dtype": "int32"}, {"name": "module_apply_default/BoxPredictor_5/strided_slice/stack_2", "shape": [1], "dtype": "int32"}, {"name": "module_apply_default/BoxPredictor_5/Reshape/shape/1", "shape": [], "dtype": "int32"}, {"name": "module_apply_default/BoxPredictor_5/Reshape/shape/2", "shape": [], "dtype": "int32"}, {"name": "module_apply_default/BoxPredictor_5/Reshape/shape/3", "shape": [], "dtype": "int32"}, {"name": "module_apply_default/concat/axis", "shape": [], "dtype": "int32"}, {"name": "module_apply_default/Postprocessor/strided_slice_1/stack", "shape": [1], "dtype": "int32"}, {"name": "module_apply_default/Postprocessor/strided_slice_1/stack_1", "shape": [1], "dtype": "int32"}, {"name": "module_apply_default/Postprocessor/strided_slice_1/stack_2", "shape": [1], "dtype": "int32"}, {"name": "module_apply_default/Postprocessor/stack/2", "shape": [], "dtype": "int32"}, {"name": "module_apply_default/Postprocessor/ExpandDims_1/dim", "shape": [], "dtype": "int32"}, {"name": "module_apply_default/Postprocessor/BatchMultiClassNonMaxSuppression/map/strided_slice/stack", "shape": [1], "dtype": "int32"}, {"name": "module_apply_default/Postprocessor/BatchMultiClassNonMaxSuppression/map/strided_slice/stack_1", "shape": [1], "dtype": "int32"}, {"name": "module_apply_default/Postprocessor/BatchMultiClassNonMaxSuppression/map/strided_slice/stack_2", "shape": [1], "dtype": "int32"}, {"name": "module_apply_default/Preprocessor/map/while/ResizeImage/stack_1", "shape": [3], "dtype": "int32"}, {"name": "module_apply_default/Preprocessor/map/while/ResizeImage/resize/ExpandDims/dim", "shape": [], "dtype": "int32"}, {"name": "module_apply_default/Preprocessor/map/while/ResizeImage/stack", "shape": [2], "dtype": "int32"}, {"name": "module_apply_default/Preprocessor/map/while/add/y", "shape": [], "dtype": "int32"}, {"name": "module_apply_default/Preprocessor/map/while/add_1/y", "shape": [], "dtype": "int32"}, {"name": "ConstantFolding/module_apply_default/Postprocessor/BatchMultiClassNonMaxSuppression/ones/packed_const_axis", "shape": [], "dtype": "int32"}, {"name": "module_apply_default/Postprocessor/BatchMultiClassNonMaxSuppression/map/while/add_1/y", "shape": [], "dtype": "int32"}, {"name": "module_apply_default/Postprocessor/BatchMultiClassNonMaxSuppression/map/while/PadOrClipBoxList/zeros_1", "shape": [2], "dtype": "int32"}, {"name": "module_apply_default/Postprocessor/BatchMultiClassNonMaxSuppression/map/while/PadOrClipBoxList/sub_2/x", "shape": [], "dtype": "int32"}, {"name": "module_apply_default/Postprocessor/BatchMultiClassNonMaxSuppression/map/while/PadOrClipBoxList/strided_slice_2/stack", "shape": [1], "dtype": "int32"}, {"name": "module_apply_default/Postprocessor/BatchMultiClassNonMaxSuppression/map/while/PadOrClipBoxList/strided_slice_2/stack_1", "shape": [1], "dtype": "int32"}, {"name": "module_apply_default/Postprocessor/BatchMultiClassNonMaxSuppression/map/while/PadOrClipBoxList/strided_slice_2/stack_2", "shape": [1], "dtype": "int32"}, {"name": "module_apply_default/Postprocessor/BatchMultiClassNonMaxSuppression/map/while/PadOrClipBoxList/sub_3/x", "shape": [], "dtype": "int32"}, {"name": "module_apply_default/Postprocessor/BatchMultiClassNonMaxSuppression/map/while/PadOrClipBoxList/zeros", "shape": [2], "dtype": "int32"}, {"name": "module_apply_default/Postprocessor/BatchMultiClassNonMaxSuppression/map/while/PadOrClipBoxList/strided_slice/stack", "shape": [1], "dtype": "int32"}, {"name": "module_apply_default/Postprocessor/BatchMultiClassNonMaxSuppression/map/while/PadOrClipBoxList/strided_slice/stack_1", "shape": [1], "dtype": "int32"}, {"name": "module_apply_default/Postprocessor/BatchMultiClassNonMaxSuppression/map/while/PadOrClipBoxList/strided_slice/stack_2", "shape": [1], "dtype": "int32"}, {"name": "module_apply_default/Postprocessor/BatchMultiClassNonMaxSuppression/map/while/PadOrClipBoxList/sub/y", "shape": [], "dtype": "int32"}, {"name": "module_apply_default/Postprocessor/BatchMultiClassNonMaxSuppression/map/while/PadOrClipBoxList/Greater/y", "shape": [], "dtype": "int32"}, {"name": "module_apply_default/Postprocessor/BatchMultiClassNonMaxSuppression/map/while/PadOrClipBoxList/Select/t", "shape": [], "dtype": "int32"}, {"name": "module_apply_default/Postprocessor/BatchMultiClassNonMaxSuppression/map/while/PadOrClipBoxList/Select/e", "shape": [], "dtype": "int32"}, {"name": "module_apply_default/Postprocessor/BatchMultiClassNonMaxSuppression/map/while/MultiClassNonMaxSuppression/Gather_1/GatherV2_4/axis", "shape": [], "dtype": "int32"}, {"name": "module_apply_default/Postprocessor/BatchMultiClassNonMaxSuppression/map/while/MultiClassNonMaxSuppression/Gather_2/GatherV2_4/axis", "shape": [], "dtype": "int32"}, {"name": "module_apply_default/Postprocessor/BatchMultiClassNonMaxSuppression/map/while/PadOrClipBoxList/strided_slice_1/stack", "shape": [1], "dtype": "int32"}, {"name": "module_apply_default/Postprocessor/BatchMultiClassNonMaxSuppression/map/while/PadOrClipBoxList/strided_slice_1/stack_1", "shape": [1], "dtype": "int32"}, {"name": "module_apply_default/Postprocessor/BatchMultiClassNonMaxSuppression/map/while/PadOrClipBoxList/strided_slice_1/stack_2", "shape": [1], "dtype": "int32"}, {"name": "module_apply_default/Postprocessor/BatchMultiClassNonMaxSuppression/map/while/PadOrClipBoxList/sub_1/y", "shape": [], "dtype": "int32"}, {"name": "module_apply_default/Postprocessor/BatchMultiClassNonMaxSuppression/map/while/PadOrClipBoxList/Greater_1/y", "shape": [], "dtype": "int32"}, {"name": "module_apply_default/Postprocessor/BatchMultiClassNonMaxSuppression/map/while/PadOrClipBoxList/Select_1/t", "shape": [], "dtype": "int32"}, {"name": "module_apply_default/Postprocessor/BatchMultiClassNonMaxSuppression/map/while/PadOrClipBoxList/Select_1/e", "shape": [], "dtype": "int32"}, {"name": "module_apply_default/Postprocessor/BatchMultiClassNonMaxSuppression/map/while/PadOrClipBoxList/strided_slice_3/stack", "shape": [1], "dtype": "int32"}, {"name": "module_apply_default/Postprocessor/BatchMultiClassNonMaxSuppression/map/while/PadOrClipBoxList/strided_slice_3/stack_1", "shape": [1], "dtype": "int32"}, {"name": "module_apply_default/Postprocessor/BatchMultiClassNonMaxSuppression/map/while/PadOrClipBoxList/strided_slice_3/stack_2", "shape": [1], "dtype": "int32"}, {"name": "module_apply_default/Postprocessor/BatchMultiClassNonMaxSuppression/map/while/PadOrClipBoxList/zeros_7", "shape": [1], "dtype": "int32"}, {"name": "module_apply_default/Postprocessor/BatchMultiClassNonMaxSuppression/map/while/PadOrClipBoxList/sub_13/x", "shape": [], "dtype": "int32"}, {"name": "module_apply_default/Postprocessor/BatchMultiClassNonMaxSuppression/map/while/PadOrClipBoxList/zeros_6", "shape": [1], "dtype": "int32"}, {"name": "module_apply_default/Postprocessor/BatchMultiClassNonMaxSuppression/map/while/MultiClassNonMaxSuppression/add_1/y", "shape": [], "dtype": "float32", "quantization": {"dtype": "uint8", "min": 0.0, "scale": 1.0, "original_dtype": "float32"}}, {"name": "module_apply_default/Postprocessor/BatchMultiClassNonMaxSuppression/map/while/MultiClassNonMaxSuppression/SortByField/Gather/GatherV2_3/axis", "shape": [], "dtype": "int32"}, {"name": "module_apply_default/Postprocessor/BatchMultiClassNonMaxSuppression/map/while/MultiClassNonMaxSuppression/ClipToWindow/Gather/GatherV2_3/axis", "shape": [], "dtype": "int32"}, {"name": "module_apply_default/Postprocessor/BatchMultiClassNonMaxSuppression/map/while/MultiClassNonMaxSuppression/SortByField_1/Gather/GatherV2_3/axis", "shape": [], "dtype": "int32"}, {"name": "module_apply_default/Postprocessor/BatchMultiClassNonMaxSuppression/map/while/MultiClassNonMaxSuppression/Gather_1/GatherV2_3/axis", "shape": [], "dtype": "int32"}, {"name": "module_apply_default/Postprocessor/BatchMultiClassNonMaxSuppression/map/while/MultiClassNonMaxSuppression/Gather_2/GatherV2_3/axis", "shape": [], "dtype": "int32"}, {"name": "module_apply_default/Postprocessor/BatchMultiClassNonMaxSuppression/map/while/PadOrClipBoxList/strided_slice_12/stack", "shape": [1], "dtype": "int32"}, {"name": "module_apply_default/Postprocessor/BatchMultiClassNonMaxSuppression/map/while/PadOrClipBoxList/strided_slice_12/stack_1", "shape": [1], "dtype": "int32"}, {"name": "module_apply_default/Postprocessor/BatchMultiClassNonMaxSuppression/map/while/PadOrClipBoxList/strided_slice_12/stack_2", "shape": [1], "dtype": "int32"}, {"name": "module_apply_default/Postprocessor/BatchMultiClassNonMaxSuppression/map/while/PadOrClipBoxList/sub_12/y", "shape": [], "dtype": "int32"}, {"name": "module_apply_default/Postprocessor/BatchMultiClassNonMaxSuppression/map/while/PadOrClipBoxList/Greater_6/y", "shape": [], "dtype": "int32"}, {"name": "module_apply_default/Postprocessor/BatchMultiClassNonMaxSuppression/map/while/PadOrClipBoxList/Select_6/t", "shape": [], "dtype": "int32"}, {"name": "module_apply_default/Postprocessor/BatchMultiClassNonMaxSuppression/map/while/PadOrClipBoxList/Select_6/e", "shape": [], "dtype": "int32"}, {"name": "module_apply_default/Postprocessor/BatchMultiClassNonMaxSuppression/map/while/PadOrClipBoxList/strided_slice_13/stack", "shape": [1], "dtype": "int32"}, {"name": "module_apply_default/Postprocessor/BatchMultiClassNonMaxSuppression/map/while/PadOrClipBoxList/strided_slice_13/stack_1", "shape": [1], "dtype": "int32"}, {"name": "module_apply_default/Postprocessor/BatchMultiClassNonMaxSuppression/map/while/PadOrClipBoxList/strided_slice_13/stack_2", "shape": [1], "dtype": "int32"}, {"name": "module_apply_default/Postprocessor/BatchMultiClassNonMaxSuppression/map/while/PadOrClipBoxList/zeros_5", "shape": [1], "dtype": "int32"}, {"name": "module_apply_default/Postprocessor/BatchMultiClassNonMaxSuppression/map/while/PadOrClipBoxList/sub_11/x", "shape": [], "dtype": "int32"}, {"name": "module_apply_default/Postprocessor/BatchMultiClassNonMaxSuppression/map/while/PadOrClipBoxList/zeros_4", "shape": [1], "dtype": "int32"}, {"name": "module_apply_default/Postprocessor/BatchMultiClassNonMaxSuppression/map/while/MultiClassNonMaxSuppression/SortByField_1/Gather/GatherV2_2/axis", "shape": [], "dtype": "int32"}, {"name": "module_apply_default/Postprocessor/BatchMultiClassNonMaxSuppression/map/while/MultiClassNonMaxSuppression/range_1/start", "shape": [], "dtype": "int32"}, {"name": "module_apply_default/Postprocessor/BatchMultiClassNonMaxSuppression/map/while/MultiClassNonMaxSuppression/range_1/delta", "shape": [], "dtype": "int32"}, {"name": "module_apply_default/Postprocessor/BatchMultiClassNonMaxSuppression/map/while/MultiClassNonMaxSuppression/Gather_1/GatherV2_2/axis", "shape": [], "dtype": "int32"}, {"name": "module_apply_default/Postprocessor/BatchMultiClassNonMaxSuppression/map/while/MultiClassNonMaxSuppression/range_2/start", "shape": [], "dtype": "int32"}, {"name": "module_apply_default/Postprocessor/BatchMultiClassNonMaxSuppression/map/while/MultiClassNonMaxSuppression/range_2/delta", "shape": [], "dtype": "int32"}, {"name": "module_apply_default/Postprocessor/BatchMultiClassNonMaxSuppression/map/while/MultiClassNonMaxSuppression/Gather_2/GatherV2_2/axis", "shape": [], "dtype": "int32"}, {"name": "module_apply_default/Postprocessor/BatchMultiClassNonMaxSuppression/map/while/PadOrClipBoxList/strided_slice_10/stack", "shape": [1], "dtype": "int32"}, {"name": "module_apply_default/Postprocessor/BatchMultiClassNonMaxSuppression/map/while/PadOrClipBoxList/strided_slice_10/stack_1", "shape": [1], "dtype": "int32"}, {"name": "module_apply_default/Postprocessor/BatchMultiClassNonMaxSuppression/map/while/PadOrClipBoxList/strided_slice_10/stack_2", "shape": [1], "dtype": "int32"}, {"name": "module_apply_default/Postprocessor/BatchMultiClassNonMaxSuppression/map/while/PadOrClipBoxList/sub_10/y", "shape": [], "dtype": "int32"}, {"name": "module_apply_default/Postprocessor/BatchMultiClassNonMaxSuppression/map/while/PadOrClipBoxList/Greater_5/y", "shape": [], "dtype": "int32"}, {"name": "module_apply_default/Postprocessor/BatchMultiClassNonMaxSuppression/map/while/PadOrClipBoxList/Select_5/t", "shape": [], "dtype": "int32"}, {"name": "module_apply_default/Postprocessor/BatchMultiClassNonMaxSuppression/map/while/PadOrClipBoxList/Select_5/e", "shape": [], "dtype": "int32"}, {"name": "module_apply_default/Postprocessor/BatchMultiClassNonMaxSuppression/map/while/PadOrClipBoxList/strided_slice_11/stack", "shape": [1], "dtype": "int32"}, {"name": "module_apply_default/Postprocessor/BatchMultiClassNonMaxSuppression/map/while/PadOrClipBoxList/strided_slice_11/stack_1", "shape": [1], "dtype": "int32"}, {"name": "module_apply_default/Postprocessor/BatchMultiClassNonMaxSuppression/map/while/PadOrClipBoxList/strided_slice_11/stack_2", "shape": [1], "dtype": "int32"}, {"name": "module_apply_default/Postprocessor/BatchMultiClassNonMaxSuppression/map/while/MultiClassNonMaxSuppression/GreaterEqual/y", "shape": [], "dtype": "float32", "quantization": {"dtype": "uint8", "min": 0.0, "scale": 1.0, "original_dtype": "float32"}}, {"name": "module_apply_default/Postprocessor/BatchMultiClassNonMaxSuppression/map/while/MultiClassNonMaxSuppression/Const_1", "shape": [1], "dtype": "int32"}, {"name": "module_apply_default/Postprocessor/BatchMultiClassNonMaxSuppression/map/while/MultiClassNonMaxSuppression/Minimum_1/x", "shape": [], "dtype": "int32"}, {"name": "module_apply_default/Postprocessor/BatchMultiClassNonMaxSuppression/map/while/MultiClassNonMaxSuppression/Area/split/split_dim", "shape": [], "dtype": "int32"}, {"name": "module_apply_default/Postprocessor/BatchMultiClassNonMaxSuppression/map/while/MultiClassNonMaxSuppression/SortByField/Gather/GatherV2_2/axis", "shape": [], "dtype": "int32"}, {"name": "module_apply_default/Postprocessor/BatchMultiClassNonMaxSuppression/map/while/MultiClassNonMaxSuppression/ClipToWindow/Gather/GatherV2_2/axis", "shape": [], "dtype": "int32"}, {"name": "module_apply_default/Postprocessor/BatchMultiClassNonMaxSuppression/map/while/MultiClassNonMaxSuppression/mul_1/x", "shape": [], "dtype": "float32", "quantization": {"dtype": "uint8", "min": -1.0, "scale": 1.0, "original_dtype": "float32"}}, {"name": "module_apply_default/Postprocessor/BatchMultiClassNonMaxSuppression/map/while/MultiClassNonMaxSuppression/strided_slice_3/stack", "shape": [1], "dtype": "int32"}, {"name": "module_apply_default/Postprocessor/BatchMultiClassNonMaxSuppression/map/while/MultiClassNonMaxSuppression/strided_slice_3/stack_1", "shape": [1], "dtype": "int32"}, {"name": "module_apply_default/Postprocessor/BatchMultiClassNonMaxSuppression/map/while/MultiClassNonMaxSuppression/strided_slice_3/stack_2", "shape": [1], "dtype": "int32"}, {"name": "module_apply_default/Postprocessor/BatchMultiClassNonMaxSuppression/map/while/MultiClassNonMaxSuppression/ones_1/Reshape/shape", "shape": [1], "dtype": "int32"}, {"name": "module_apply_default/Postprocessor/BatchMultiClassNonMaxSuppression/map/while/MultiClassNonMaxSuppression/ones_1/Const", "shape": [], "dtype": "float32", "quantization": {"dtype": "uint8", "min": 1.0, "scale": 1.0, "original_dtype": "float32"}}, {"name": "module_apply_default/Postprocessor/BatchMultiClassNonMaxSuppression/map/while/MultiClassNonMaxSuppression/ClipToWindow/Area/split/split_dim", "shape": [], "dtype": "int32"}, {"name": "module_apply_default/Postprocessor/BatchMultiClassNonMaxSuppression/map/while/MultiClassNonMaxSuppression/ClipToWindow/split/split_dim", "shape": [], "dtype": "int32"}, {"name": "module_apply_default/Postprocessor/BatchMultiClassNonMaxSuppression/map/while/MultiClassNonMaxSuppression/range/start", "shape": [], "dtype": "int32"}, {"name": "module_apply_default/Postprocessor/BatchMultiClassNonMaxSuppression/map/while/MultiClassNonMaxSuppression/range/delta", "shape": [], "dtype": "int32"}, {"name": "module_apply_default/Postprocessor/BatchMultiClassNonMaxSuppression/map/while/MultiClassNonMaxSuppression/Gather/GatherV2_2/axis", "shape": [], "dtype": "int32"}, {"name": "module_apply_default/Postprocessor/BatchMultiClassNonMaxSuppression/map/while/MultiClassNonMaxSuppression/mul/x", "shape": [], "dtype": "float32", "quantization": {"dtype": "uint8", "min": -1.0, "scale": 1.0, "original_dtype": "float32"}}, {"name": "module_apply_default/Postprocessor/BatchMultiClassNonMaxSuppression/map/while/MultiClassNonMaxSuppression/ones/Reshape/shape", "shape": [1], "dtype": "int32"}, {"name": "module_apply_default/Postprocessor/BatchMultiClassNonMaxSuppression/map/while/MultiClassNonMaxSuppression/ones/Const", "shape": [], "dtype": "float32", "quantization": {"dtype": "uint8", "min": 1.0, "scale": 1.0, "original_dtype": "float32"}}, {"name": "module_apply_default/Postprocessor/BatchMultiClassNonMaxSuppression/map/while/MultiClassNonMaxSuppression/Slice/begin", "shape": [2], "dtype": "int32"}, {"name": "module_apply_default/Postprocessor/BatchMultiClassNonMaxSuppression/map/while/Slice_1/begin", "shape": [2], "dtype": "int32"}, {"name": "module_apply_default/Postprocessor/BatchMultiClassNonMaxSuppression/map/while/stack_1/1", "shape": [], "dtype": "int32"}, {"name": "module_apply_default/Postprocessor/BatchMultiClassNonMaxSuppression/map/while/Reshape_1/shape", "shape": [2], "dtype": "int32"}, {"name": "module_apply_default/Postprocessor/BatchMultiClassNonMaxSuppression/map/while/MultiClassNonMaxSuppression/strided_slice/stack", "shape": [1], "dtype": "int32"}, {"name": "module_apply_default/Postprocessor/BatchMultiClassNonMaxSuppression/map/while/MultiClassNonMaxSuppression/strided_slice/stack_1", "shape": [1], "dtype": "int32"}, {"name": "module_apply_default/Postprocessor/BatchMultiClassNonMaxSuppression/map/while/MultiClassNonMaxSuppression/strided_slice/stack_2", "shape": [1], "dtype": "int32"}, {"name": "module_apply_default/Postprocessor/BatchMultiClassNonMaxSuppression/map/while/MultiClassNonMaxSuppression/stack/1", "shape": [], "dtype": "int32"}, {"name": "module_apply_default/Postprocessor/BatchMultiClassNonMaxSuppression/map/while/MultiClassNonMaxSuppression/Reshape/shape", "shape": [1], "dtype": "int32"}, {"name": "module_apply_default/Postprocessor/BatchMultiClassNonMaxSuppression/map/while/MultiClassNonMaxSuppression/Minimum/x", "shape": [], "dtype": "int32"}, {"name": "module_apply_default/Postprocessor/BatchMultiClassNonMaxSuppression/map/while/Slice/begin", "shape": [3], "dtype": "int32"}, {"name": "module_apply_default/Postprocessor/BatchMultiClassNonMaxSuppression/map/while/stack/1", "shape": [], "dtype": "int32"}, {"name": "module_apply_default/Postprocessor/BatchMultiClassNonMaxSuppression/map/while/stack/2", "shape": [], "dtype": "int32"}, {"name": "module_apply_default/Postprocessor/BatchMultiClassNonMaxSuppression/map/while/Reshape/shape", "shape": [3], "dtype": "int32"}, {"name": "module_apply_default/Postprocessor/BatchMultiClassNonMaxSuppression/map/while/MultiClassNonMaxSuppression/strided_slice_1/stack", "shape": [1], "dtype": "int32"}, {"name": "module_apply_default/Postprocessor/BatchMultiClassNonMaxSuppression/map/while/MultiClassNonMaxSuppression/strided_slice_1/stack_1", "shape": [1], "dtype": "int32"}, {"name": "module_apply_default/Postprocessor/BatchMultiClassNonMaxSuppression/map/while/MultiClassNonMaxSuppression/strided_slice_1/stack_2", "shape": [1], "dtype": "int32"}, {"name": "module_apply_default/Postprocessor/BatchMultiClassNonMaxSuppression/map/while/MultiClassNonMaxSuppression/non_max_suppression/iou_threshold", "shape": [], "dtype": "float32", "quantization": {"dtype": "uint8", "min": 0.6000000238418579, "scale": 1.0, "original_dtype": "float32"}}, {"name": "module_apply_default/Postprocessor/BatchMultiClassNonMaxSuppression/map/while/MultiClassNonMaxSuppression/non_max_suppression/score_threshold", "shape": [], "dtype": "float32", "quantization": {"dtype": "uint8", "min": 9.99999993922529e-09, "scale": 1.0, "original_dtype": "float32"}}, {"name": "module_apply_default/Postprocessor/BatchMultiClassNonMaxSuppression/map/while/MultiClassNonMaxSuppression/strided_slice_2/stack", "shape": [1], "dtype": "int32"}, {"name": "module_apply_default/Postprocessor/BatchMultiClassNonMaxSuppression/map/while/MultiClassNonMaxSuppression/strided_slice_2/stack_1", "shape": [1], "dtype": "int32"}, {"name": "module_apply_default/Postprocessor/BatchMultiClassNonMaxSuppression/map/while/MultiClassNonMaxSuppression/strided_slice_2/stack_2", "shape": [1], "dtype": "int32"}, {"name": "module_apply_default/Postprocessor/BatchMultiClassNonMaxSuppression/map/while/MultiClassNonMaxSuppression/zeros/Reshape/shape", "shape": [1], "dtype": "int32"}, {"name": "module_apply_default/Postprocessor/BatchMultiClassNonMaxSuppression/map/while/MultiClassNonMaxSuppression/zeros/Const", "shape": [], "dtype": "int32"}, {"name": "module_apply_default/Postprocessor/BatchMultiClassNonMaxSuppression/map/while/MultiClassNonMaxSuppression/concat/axis", "shape": [], "dtype": "int32"}, {"name": "module_apply_default/Postprocessor/BatchMultiClassNonMaxSuppression/map/while/MultiClassNonMaxSuppression/Gather/GatherV2_3/axis", "shape": [], "dtype": "int32"}, {"name": "module_apply_default/Postprocessor/BatchMultiClassNonMaxSuppression/map/while/MultiClassNonMaxSuppression/SortByField/strided_slice/stack", "shape": [1], "dtype": "int32"}, {"name": "module_apply_default/Postprocessor/BatchMultiClassNonMaxSuppression/map/while/MultiClassNonMaxSuppression/SortByField/strided_slice/stack_1", "shape": [1], "dtype": "int32"}, {"name": "module_apply_default/Postprocessor/BatchMultiClassNonMaxSuppression/map/while/MultiClassNonMaxSuppression/SortByField/strided_slice/stack_2", "shape": [1], "dtype": "int32"}, {"name": "module_apply_default/Postprocessor/BatchMultiClassNonMaxSuppression/map/while/MultiClassNonMaxSuppression/SortByField/Gather/GatherV2_4/axis", "shape": [], "dtype": "int32"}, {"name": "module_apply_default/Postprocessor/BatchMultiClassNonMaxSuppression/map/while/MultiClassNonMaxSuppression/ClipToWindow/concat/axis", "shape": [], "dtype": "int32"}, {"name": "module_apply_default/Postprocessor/BatchMultiClassNonMaxSuppression/map/while/MultiClassNonMaxSuppression/ClipToWindow/Greater/y", "shape": [], "dtype": "float32", "quantization": {"dtype": "uint8", "min": 0.0, "scale": 1.0, "original_dtype": "float32"}}, {"name": "module_apply_default/Postprocessor/BatchMultiClassNonMaxSuppression/map/while/MultiClassNonMaxSuppression/ClipToWindow/Reshape/shape", "shape": [1], "dtype": "int32"}, {"name": "module_apply_default/Postprocessor/BatchMultiClassNonMaxSuppression/map/while/MultiClassNonMaxSuppression/ClipToWindow/Gather/GatherV2_4/axis", "shape": [], "dtype": "int32"}, {"name": "module_apply_default/Postprocessor/BatchMultiClassNonMaxSuppression/map/while/MultiClassNonMaxSuppression/SortByField_1/strided_slice/stack", "shape": [1], "dtype": "int32"}, {"name": "module_apply_default/Postprocessor/BatchMultiClassNonMaxSuppression/map/while/MultiClassNonMaxSuppression/SortByField_1/strided_slice/stack_1", "shape": [1], "dtype": "int32"}, {"name": "module_apply_default/Postprocessor/BatchMultiClassNonMaxSuppression/map/while/MultiClassNonMaxSuppression/SortByField_1/strided_slice/stack_2", "shape": [1], "dtype": "int32"}, {"name": "module_apply_default/Postprocessor/BatchMultiClassNonMaxSuppression/map/while/MultiClassNonMaxSuppression/SortByField_1/Gather/GatherV2_4/axis", "shape": [], "dtype": "int32"}, {"name": "module_apply_default/Postprocessor/BatchMultiClassNonMaxSuppression/map/while/MultiClassNonMaxSuppression/strided_slice_4/stack", "shape": [1], "dtype": "int32"}, {"name": "module_apply_default/Postprocessor/BatchMultiClassNonMaxSuppression/map/while/MultiClassNonMaxSuppression/strided_slice_4/stack_1", "shape": [1], "dtype": "int32"}, {"name": "module_apply_default/Postprocessor/BatchMultiClassNonMaxSuppression/map/while/MultiClassNonMaxSuppression/strided_slice_4/stack_2", "shape": [1], "dtype": "int32"}, {"name": "module_apply_default/Postprocessor/BatchMultiClassNonMaxSuppression/map/while/add/y", "shape": [], "dtype": "int32"}, {"name": "ConstantFolding/module_apply_default/Postprocessor/BatchMultiClassNonMaxSuppression/map/while/PadOrClipBoxList/Slice_3/size_const_axis", "shape": [], "dtype": "int32"}, {"name": "ConstantFolding/module_apply_default/Postprocessor/BatchMultiClassNonMaxSuppression/map/while/PadOrClipBoxList/Slice_2/size_const_axis", "shape": [], "dtype": "int32"}, {"name": "ConstantFolding/module_apply_default/Postprocessor/BatchMultiClassNonMaxSuppression/map/while/PadOrClipBoxList/stack_3/values_1_const_axis", "shape": [], "dtype": "int32"}, {"name": "ConstantFolding/module_apply_default/Postprocessor/BatchMultiClassNonMaxSuppression/map/while/PadOrClipBoxList/stack_2/values_1_const_axis", "shape": [], "dtype": "int32"}]}]}